exp/ETT_checkpoints/SCINet_ETTh1_ftM_sl24_ll12_pl12_lr0.007_bs64_hid8_s1_l3_dp0.25_invFalse_itr0/checkpoint.pth (torch, 781277 bytes, 114 tensors)

inv_timescales f8 [4]
00000000: 0000 0000 0000 f03f 0000 00e0 d2c3 a73f
00000010: 0000 0060 2da6 613f 0000 00c0 e236 1a3f
1.0 0.046415891498327255 0.002154434798285365 9.99999901978299e-05

blocks1.SCINet_Tree.workingblock.interact.level.phi.1.weight f8 [56, 7, 5]
00000000: 0000 0080 e4e3 ba3f 0000 0080 40a0 bb3f
00000010: 0000 0000 128d 943f 0000 0000 0fc7 9d3f
00000020: 0000 0000 ecab c0bf 0000 0000 f70d bd3f
00000030: 0000 0040 cd36 b03f 0000 0040 b994 c5bf
00000040: 0000 0000 6011 553f 0000 0000 1d80 ba3f
00000050: 0000 0000 48ea 99bf 0000 0020 a939 bbbf
00000060: 0000 0000 704f 793f 0000 00c0 bb73 b43f
00000070: 0000 0000 67b3 9e3f 0000 0080 6bb7 be3f
00000080: 0000 0000 8339 aa3f 0000 0000 c03f 7ebf
00000090: 0000 00c0 24af b43f 0000 0000 f2b3 ab3f
000000a0: 0000 0000 0c6d c0bf 0000 00e0 3040 c5bf
000000b0: 0000 0000 6bbd c03f 0000 0000 de34 b43f
000000c0: 0000 0000 0794 b63f 0000 0080 20af a43f
000000d0: 0000 0000 9657 883f 0000 00c0 cd0b bebf
000000e0: 0000 0000 81cb 93bf 0000 0000 d432 a2bf
000000f0: 0000 0000 2285 b3bf 0000 00c0 95d2 babf
00000100: 0000 0040 c2ca b3bf 0000 0000 05ca c43f
00000110: 0000 0000 a944 9dbf 0000 00c0 83d3 c0bf
00000120: 0000 0080 1f75 ac3f 0000 00c0 de9d c13f
00000130: 0000 00c0 6d93 b5bf 0000 00c0 5f56 bfbf
00000140: 0000 0000 9098 5d3f 0000 00c0 ebb4 c33f
00000150: 0000 0000 210a c2bf 0000 0080 15dd ab3f
00000160: 0000 0040 1aba bfbf 0000 0000 b78c c1bf
00000170: 0000 0080 8104 c03f 0000 00c0 8386 b8bf
00000180: 0000 0040 98ff bcbf 0000 0060 b322 c4bf
00000190: 0000 0040 1c56 bfbf 0000 0000 a405 88bf
000001a0: 0000 0080 2d3a ad3f 0000 0080 261a adbf
000001b0: 0000 0020 282c b2bf 0000 0000 6b22 b53f
000001c0: 0000 0000 3553 9c3f 0000 00c0 9a24 c33f
000001d0: 0000 0040 f317 c23f 0000 0000 20ec 5bbf
000001e0: 0000 0080 a51c afbf 0000 0040 ca6b c13f
000001f0: 0000 0000 b9cd c1bf 0000 0000 7a3d ab3f
00000200: 0000 0000 fc95 803f 0000 0000 9887 823f
00000210: 0000 0080 354a c13f 0000 0000 0731 99bf
00000220: 0000 0060 a3c2 b7bf 0000 0040 caf3 b1bf
00000230: 0000 0000 a8ad 62bf 0000 0080 a880 bd3f
00000240: 0000 00a0 3e41 bcbf 0000 0060 968a c3bf
00000250: 0000 0020 511d b8bf 0000 0000 0359 b2bf
00000260: 0000 0040 524c b03f 0000 0000 9891 82bf
00000270: 0000 0080 212a a23f 0000 00c0 4632 c1bf
00000280: 0000 0000 c971 afbf 0000 0040 4f47 c13f
00000290: 0000 0080 d121 ac3f 0000 0080 38b1 a2bf
000002a0: 0000 0080 e891 b63f 0000 0020 aa6a c1bf
000002b0: 0000 0000 c81b 72bf 0000 0080 440f a33f
000002c0: 0000 00e0 e962 b0bf 0000 00a0 9046 c4bf
000002d0: 0000 00c0 dff9 c43f 0000 00c0 8b88 b6bf
000002e0: 0000 0000 1070 a43f 0000 0000 620b ba3f
000002f0: 0000 0080 89fa a93f 0000 0060 d21b c4bf
00000300: 0000 0040 6063 b8bf 0000 0000 6a2b 90bf
00000310: 0000 0000 e23e c0bf 0000 0080 56fe a8bf
00000320: 0000 0080 7713 c13f 0000 0000 4f8b afbf
00000330: 0000 00c0 540b c0bf 0000 0060 0b60 b8bf
00000340: 0000 0040 e6c7 c13f 0000 0040 b815 c03f
00000350: 0000 0000 2c9c 813f 0000 0080 2a65 ab3f
00000360: 0000 0080 613d b23f 0000 0000 a0c9 8d3f
00000370: 0000 0000 0c3c 9b3f 0000 0000 0c10 9d3f
00000380: 0000 0000 b891 70bf 0000 00e0 4a72 c4bf
00000390: 0000 0080 5299 a23f 0000 00c0 7e83 c23f
000003a0: 0000 0060 d68c b9bf 0000 0040 55b9 b13f
000003b0: 0000 0000 10f2 6f3f 0000 00c0 aafc c13f
000003c0: 0000 0000 405d c13f 0000 0040 b9fc c23f
000003d0: 0000 0080 01c0 a83f 0000 00c0 e749 c53f
000003e0: 0000 0080 e979 a03f 0000 0000 c9f6 b3bf
000003f0: 0000 0020 71a8 bbbf 0000 0080 aceb a5bf
00000400: 0000 0040 7d6f c4bf 0000 0000 4d71 c13f
00000410: 0000 0080 ff3d b43f 0000 0080 07c0 a03f
00000420: 0000 0040 7acd a8bf 0000 0000 e877 803f
00000430: 0000 00c0 7e7f bcbf 0000 0000 dc03 b83f
00000440: 0000 0080 3cc4 b93f 0000 0000 f6f2 8dbf
00000450: 0000 0080 e4a1 a3bf 0000 0000 dc03 98bf
00000460: 0000 0080 f88a c33f 0000 0080 edc2 c2bf
00000470: 0000 0000 5972 983f 0000 0080 9cfc bf3f
00000480: 0000 0080 0ca6 a6bf 0000 0000 8756 b93f
00000490: 0000 0000 fd4c c2bf 0000 0040 dbf1 c0bf
000004a0: 0000 0080 3a80 c33f 0000 0000 4ed8 bb3f
000004b0: 0000 0000 b27e c43f 0000 0080 ac1d b73f
000004c0: 0000 00c0 7ec2 b33f 0000 0000 fb6a 9dbf
000004d0: 0000 0080 9353 c33f 0000 0040 3c8a b33f
000004e0: 0000 00a0 aee3 b1bf 0000 0000 0e42 b73f
000004f0: 0000 0000 73c3 a93f 0000 0000 a4ad 7e3f
00000500: 0000 0000 c340 b9bf 0000 00c0 d2bf bcbf
00000510: 0000 0000 ab4c ac3f 0000 0000 7420 a43f
00000520: 0000 0000 1b22 be3f 0000 0000 988d 96bf
00000530: 0000 0000 7aae bb3f 0000 0080 aa1c a23f
00000540: 0000 0000 c8f1 8a3f 0000 0080 af05 b03f
00000550: 0000 0000 3851 c0bf 0000 0000 2a09 b6bf
00000560: 0000 0080 1538 b83f 0000 0080 4c1f c0bf
00000570: 0000 00a0 8885 b8bf 0000 0000 c2a8 ac3f
00000580: 0000 0000 2f0c 9e3f 0000 0000 b4dd b43f
00000590: 0000 00a0 f3f6 babf 0000 0080 61c9 ba3f
000005a0: 0000 0000 bc02 743f 0000 0080 e067 b93f
000005b0: 0000 0000 66f3 c4bf 0000 0040 b9e4 c13f
000005c0: 0000 0000 4dbd c1bf 0000 0040 bb74 c23f
000005d0: 0000 0000 1438 96bf 0000 0080 ce55 b13f
000005e0: 0000 0000 050e c0bf 0000 0000 74fa 83bf
000005f0: 0000 0080 fdf9 c23f 0000 0000 c6c4 ba3f
00000600: 0000 0080 64d6 b93f 0000 0000 b9bf a5bf
00000610: 0000 0080 6791 c5bf 0000 0060 407f b1bf
00000620: 0000 0000 51e5 a3bf 0000 0000 7827 93bf
00000630: 0000 0000 6276 9abf 0000 0000 ec29 8a3f
00000640: 0000 0000 27be 9abf 0000 0020 7a8f c2bf
00000650: 0000 0000 5899 9ebf 0000 0060 6849 b6bf
00000660: 0000 0000 5014 b73f 0000 0000 ede8 95bf
00000670: 0000 0080 391c bd3f 0000 0080 cb14 aa3f
00000680: 0000 0000 ef88 bb3f 0000 00a0 859e babf
00000690: 0000 0000 c024 bd3f 0000 00e0 50a7 c0bf
000006a0: 0000 0040 1be0 b7bf 0000 0000 e7f0 933f
000006b0: 0000 0080 0941 c3bf 0000 0080 1fdd a83f
000006c0: 0000 0000 7091 ab3f 0000 00c0 5e31 c13f
000006d0: 0000 0000 64b3 aabf 0000 0040 b5bf c13f
000006e0: 0000 0020 e1a8 c4bf 0000 0000 f81e c23f
000006f0: 0000 0080 c89b b93f 0000 0000 ba10 873f
00000700: 0000 0040 688b c33f 0000 0000 52a9 89bf
00000710: 0000 0000 111b b33f 0000 0060 f0d6 b9bf
00000720: 0000 0080 0f74 aa3f 0000 00a0 9178 c4bf
00000730: 0000 0040 3347 c2bf 0000 0080 cd86 b63f
00000740: 0000 0020 beed bfbf 0000 0040 bd6d aabf
00000750: 0000 00c0 55e9 abbf 0000 0000 7145 b93f
00000760: 0000 0000 d89e 613f 0000 0080 e105 a7bf
00000770: 0000 0080 c60e ac3f 0000 00c0 b82d c3bf
00000780: 0000 0000 7df6 c33f 0000 0000 a96c a03f
00000790: 0000 0060 d697 c2bf 0000 0040 26ad acbf
000007a0: 0000 0000 00cb 1cbf 0000 0000 00d4 323f
000007b0: 0000 0040 09bc c33f 0000 0080 292c c2bf
000007c0: 0000 0000 1093 98bf 0000 0000 5e90 b13f
000007d0: 0000 0080 0f8a b7bf 0000 0060 8a11 c1bf
000007e0: 0000 0000 2057 bb3f 0000 0000 8916 b73f
000007f0: 0000 0000 3d69 c5bf 0000 0080 40f0 a03f
0.10503986477851868 0.10791400074958801 0.020069390535354614 0.029079660773277283 -0.13024663925170898 0.11349433660507202 0.06333620846271515 -0.16860118508338928
0.0012858808040618896 0.10351735353469849 -0.025307774543762207 -0.10634858161211014 0.0061792731285095215 0.07989095151424408 0.02998124063014984 0.11998626589775085
0.05122002959251404 -0.0073850154876708984 0.080797478556633 0.05410724878311157 -0.1283278465270996 -0.1660214513540268 0.13078057765960693 0.07893168926239014
0.08819621801376343 0.04039861261844635 0.011885806918144226 -0.11736761033535004 -0.01933099329471588 -0.03554403781890869 -0.07625019550323486 -0.10477577149868011
-0.07731260359287262 0.16241514682769775 -0.02858223021030426 -0.13145491480827332 0.05558107793331146 0.13763031363487244 -0.0842808336019516 -0.12241171300411224
0.0018063932657241821 0.1539587676525116 -0.14093410968780518 0.054421111941337585 -0.12393344938755035 -0.1371067762374878 0.12513750791549683 -0.09580253064632416
-0.11327506601810455 -0.15730898082256317 -0.1224076896905899 -0.011729508638381958 0.05708448588848114 -0.056840136647224426 -0.07098627835512161 0.08255642652511597
0.02766115963459015 0.14955458045005798 0.14135590195655823 -0.0017042458057403564 -0.060765430331230164 0.13610199093818665 -0.1390906572341919 0.05320340394973755
0.008098572492599487 0.00904768705368042 0.13507717847824097 -0.024601086974143982 -0.09281369298696518 -0.07012619078159332 -0.0022800713777542114 0.11524441838264465
-0.11037055402994156 -0.1526668518781662 -0.0941973403096199 -0.07167071104049683 0.06366457045078278 -0.009066760540008545 0.03547768294811249 -0.13434681296348572
-0.06141498684883118 0.1349886953830719 0.05494551360607147 -0.036508336663246155 0.08816388249397278 -0.13606764376163483 -0.004421025514602661 0.03722585737705231
-0.06400930136442184 -0.15840347111225128 0.163875550031662 -0.08802102506160736 0.0399174690246582 0.10173618793487549 0.05073957145214081 -0.15709905326366425
-0.09526635706424713 -0.015790611505508423 -0.12691903114318848 -0.048815444111824036 0.13340657949447632 -0.06160971522331238 -0.12534579634666443 -0.09521552175283432
0.13891294598579407 0.12566283345222473 0.008598655462265015 0.05350621044635773 0.0712490975856781 0.01454472541809082 0.026596248149871826 0.028381526470184326
-0.004045218229293823 -0.15973792970180511 0.036326006054878235 0.14463791251182556 -0.09980525821447372 0.0692342072725296 0.003899604082107544 0.1405232846736908
0.13565826416015625 0.14833751320838928 0.04833988845348358 0.1663179099559784 0.03218011558055878 -0.07798439264297485 -0.10803896933794022 -0.04281367361545563
-0.15965238213539124 0.1362701654434204 0.07907101511955261 0.03271506726741791 -0.048442669212818146 0.008041203022003174 -0.11132042109966278 0.09380888938903809
0.10065057873725891 -0.014623567461967468 -0.03834451735019684 -0.02345222234725952 0.15267854928970337 -0.1465737223625183 0.023873701691627502 0.12494829297065735
-0.044235602021217346 0.09897655248641968 -0.14297449588775635 -0.132380872964859 0.15235072374343872 0.10876929759979248 0.16011643409729004 0.09029653668403625
0.07718650996685028 -0.028728410601615906 0.15098804235458374 0.07632805407047272 -0.0698804035782814 0.09085166454315186 0.050319284200668335 0.007489815354347229
-0.0986444354057312 -0.11230199038982391 0.055272430181503296 0.03931009769439697 0.11770790815353394 -0.02202451229095459 0.1081310510635376 0.0353749543428421
0.013156473636627197 0.06258675456047058 -0.12747859954833984 -0.08607733249664307 0.09460577368736267 -0.12595516443252563 -0.09578756242990494 0.05597501993179321
0.02934335172176361 0.08150792121887207 -0.1053306832909584 0.1046353280544281 0.004885420203208923 0.09924128651618958 -0.16367793083190918 0.13979259133338928
-0.1385895013809204 0.14418736100196838 -0.021698296070098877 0.06771555542945862 -0.12542784214019775 -0.009755045175552368 0.14825409650802612 0.10456502437591553
0.10092762112617493 -0.042478352785110474 -0.1684998869895935 -0.06834795325994492 -0.03885892033576965 -0.018705248832702637 -0.025842219591140747 0.012775272130966187
-0.02611599862575531 -0.1450035721063614 -0.029881834983825684 -0.08705761283636093 0.09015369415283203 -0.021396353840827942 0.11371192336082458 0.050939902663230896
0.10755819082260132 -0.10398135334253311 0.11384201049804688 -0.13010607659816742 -0.09326334297657013 0.01947365701198578 -0.15042227506637573 0.04856203496456146
0.05384397506713867 0.13431915640830994 -0.05214989185333252 0.13866296410560608 -0.16140379011631012 0.1415700912475586 0.10003331303596497 0.011262372136116028
0.15269187092781067 -0.01252998411655426 0.07463175058364868 -0.10093595832586288 0.05166672170162201 -0.15992946922779083 -0.14279785752296448 0.08799442648887634
-0.12472141534090042 -0.05161849409341812 -0.054514579474925995 0.09871584177017212 0.0021509379148483276 -0.044966742396354675 0.05480022728443146 -0.1498328149318695
0.15595972537994385 0.03207901120185852 -0.14525870978832245 -0.05600852519273758 -0.00010983645915985107 0.0002872943878173828 0.15417590737342834 -0.14197272062301636
-0.023998498916625977 0.06860911846160889 -0.09195038676261902 -0.1333477944135666 0.10679817199707031 0.09018760919570923 -0.1672741174697876 0.033082976937294006

blocks1.SCINet_Tree.workingblock.interact.level.phi.1.bias f8 [56]
00000000: 0000 0080 94a1 a23f 0000 0080 f497 a53f
00000010: 0000 0060 be73 c4bf 0000 0080 2a63 c4bf
00000020: 0000 00c0 49a0 c13f 0000 00a0 504d c4bf
00000030: 0000 0080 200b a5bf 0000 0080 1c6e c0bf
00000040: 0000 00c0 dc1d b13f 0000 0000 92d1 8a3f
00000050: 0000 0080 64b3 c13f 0000 0000 f326 bd3f
00000060: 0000 0060 836f c0bf 0000 0000 7a44 9b3f
00000070: 0000 0080 bfd6 a23f 0000 00c0 a505 acbf
00000080: 0000 0040 661d c2bf 0000 0000 b31d 943f
00000090: 0000 0000 b061 92bf 0000 00c0 3733 a8bf
000000a0: 0000 0000 12d3 a2bf 0000 00a0 3f7e b6bf
000000b0: 0000 0080 f3a5 b63f 0000 0080 11d0 ad3f
000000c0: 0000 0080 89a3 b3bf 0000 0080 305f c1bf
000000d0: 0000 0040 c75b bdbf 0000 0000 1f03 bf3f
000000e0: 0000 0080 cfde c23f 0000 0080 a593 c33f
000000f0: 0000 0080 cef4 bdbf 0000 0040 916a c03f
00000100: 0000 0000 8402 75bf 0000 0000 334a 933f
00000110: 0000 0000 6b1a ae3f 0000 0000 e855 b1bf
00000120: 0000 0000 ae86 a43f 0000 0020 da9f c0bf
00000130: 0000 0040 46be b23f 0000 0000 2982 ae3f
00000140: 0000 00c0 9ab3 c1bf 0000 0000 eca4 943f
00000150: 0000 0000 d90d bc3f 0000 0080 c61e c0bf
00000160: 0000 0040 6694 bebf 0000 00e0 a244 babf
00000170: 0000 00e0 de62 c2bf 0000 0040 c657 c0bf
00000180: 0000 0000 4f08 93bf 0000 0080 2c82 c4bf
00000190: 0000 0000 eefe 99bf 0000 0040 2325 c33f
000001a0: 0000 0000 34fc 8a3f 0000 00a0 016d b4bf
000001b0: 0000 0000 14ac c43f 0000 0080 1495 c43f
0.03638900816440582 0.04217495024204254 -0.15978221595287323 -0.1592763066291809 0.13770410418510437 -0.15860946476459503 -0.04110051691532135 -0.1283603310585022
0.06686191260814667 0.013095036149024963 0.13828712701797485 0.11387556791305542 -0.12840311229228973 0.02662840485572815 0.036794647574424744 -0.05473058670759201
-0.14152219891548157 0.019644543528556824 -0.017950773239135742 -0.047265760600566864 -0.03676658868789673 -0.08786389976739883 0.08846971392631531 0.058228060603141785
-0.07671412825584412 -0.1357174515724182 -0.114681676030159 0.12114137411117554 0.1474246382713318 0.15294331312179565 -0.11701670289039612 0.12825217843055725
-0.0051293522119522095 0.018837735056877136 0.05879530310630798 -0.06771707534790039 0.04009002447128296 -0.12987829744815826 0.07321585714817047 0.059586793184280396
-0.13829359412193298 0.020160377025604248 0.10958629846572876 -0.12593919038772583 -0.11945189535617828 -0.10260980576276779 -0.14364229142665863 -0.12767866253852844
-0.018586382269859314 -0.160222589969635 -0.025386542081832886 0.14957085251808167 0.01317635178565979 -0.07978830486536026 0.16150140762329102 0.1607995629310608

blocks1.SCINet_Tree.workingblock.interact.level.phi.4.weight f8 [7, 56, 3]
00000000: 0000 0080 0cdb a0bf 0000 0060 129f aabf
00000010: 0000 0000 c9a5 a13f 0000 0000 3cb9 a13f
00000020: 0000 0000 707a 723f 0000 00c0 4c2f 91bf
00000030: 0000 0000 1c8b 993f 0000 0020 4da3 b13f
00000040: 0000 0020 19c1 a2bf 0000 00c0 d44d 90bf
00000050: 0000 00e0 8ddb b13f 0000 0000 3d80 903f
00000060: 0000 00e0 b944 b33f 0000 00c0 9869 ac3f
00000070: 0000 0020 1106 b1bf 0000 0000 a8a0 53bf
00000080: 0000 0060 9721 a5bf 0000 0040 cfdd a13f
00000090: 0000 0000 1ef2 74bf 0000 00e0 5fb0 b23f
000000a0: 0000 0000 947b 8abf 0000 0020 20dc abbf
000000b0: 0000 0040 369d adbf 0000 0040 2239 a53f
000000c0: 0000 0000 6289 903f 0000 0000 47ae 97bf
000000d0: 0000 00c0 3776 af3f 0000 0000 725e 973f
000000e0: 0000 0000 486c 803f 0000 0080 8867 a73f
000000f0: 0000 0000 9c49 80bf 0000 0080 57a3 983f
00000100: 0000 0020 6cc5 a3bf 0000 0000 1ede b0bf
00000110: 0000 0080 1515 a03f 0000 00c0 65de 9abf
00000120: 0000 0000 fa82 abbf 0000 0000 588c 60bf
00000130: 0000 0000 1c6d 993f 0000 0000 adc3 9dbf
00000140: 0000 0000 c9e8 943f 0000 0040 d37a a63f
00000150: 0000 0000 fca0 a7bf 0000 0060 14ba b23f
00000160: 0000 0040 f40e a03f 0000 0000 f322 8e3f
00000170: 0000 00c0 6b3d aa3f 0000 0000 2a00 733f
00000180: 0000 00a0 07b3 b3bf 0000 0000 0e8d b3bf
00000190: 0000 0040 f448 a33f 0000 00c0 e3d2 91bf
000001a0: 0000 0040 6619 92bf 0000 00a0 cf64 b2bf
000001b0: 0000 0060 1178 a0bf 0000 0080 ba00 94bf
000001c0: 0000 00c0 2e47 acbf 0000 0000 f379 973f
000001d0: 0000 0040 5214 aebf 0000 0000 0856 8cbf
000001e0: 0000 0040 d13a aebf 0000 00c0 5cc6 b0bf
000001f0: 0000 00c0 d318 aa3f 0000 00c0 f739 a83f
00000200: 0000 00c0 281d adbf 0000 0040 3fa0 a13f
00000210: 0000 00c0 c0b7 abbf 0000 0000 420a 7f3f
00000220: 0000 0080 1e5b b3bf 0000 0000 c051 67bf
00000230: 0000 00c0 f1fd 9dbf 0000 0040 80e3 a2bf
00000240: 0000 0000 9306 853f 0000 0060 e2d1 b03f
00000250: 0000 0040 1b24 92bf 0000 0040 f3f6 acbf
00000260: 0000 00e0 2eff b1bf 0000 0040 e260 a53f
00000270: 0000 0080 23df 933f 0000 0080 4bfb a3bf
00000280: 0000 0020 3d12 a2bf 0000 0000 d46b 86bf
00000290: 0000 0000 4591 96bf 0000 0000 a55b 94bf
000002a0: 0000 0000 3969 803f 0000 00c0 2a08 afbf
000002b0: 0000 00c0 77a7 af3f 0000 0000 60e9 85bf
000002c0: 0000 0080 9254 acbf 0000 00a0 0e3d b13f
000002d0: 0000 00a0 9a59 aabf 0000 0000 1c95 9b3f
000002e0: 0000 0000 1cf1 68bf 0000 00e0 182f acbf
000002f0: 0000 0000 8665 763f 0000 0000 b8d2 a73f
00000300: 0000 0040 7225 a3bf 0000 0000 4d9c 903f
00000310: 0000 0000 b765 983f 0000 0040 19c3 ac3f
00000320: 0000 0000 ae78 803f 0000 0080 3426 923f
00000330: 0000 0040 3038 a73f 0000 0040 ff47 af3f
00000340: 0000 0000 706b a8bf 0000 0000 a009 60bf
00000350: 0000 0000 c3af 843f 0000 00c0 4975 a9bf
00000360: 0000 0080 4a5a a23f 0000 0040 bb07 9dbf
00000370: 0000 0000 70db a43f 0000 00c0 ca6a aa3f
00000380: 0000 00e0 9b7b aebf 0000 0000 782c 5bbf
00000390: 0000 0020 4930 b2bf 0000 0040 9fab 96bf
000003a0: 0000 0000 7ab0 81bf 0000 0080 b4df 97bf
000003b0: 0000 0000 5042 8a3f 0000 00c0 c82d b0bf
000003c0: 0000 0040 48b0 aebf 0000 0000 8d5e 9b3f
000003d0: 0000 0060 2813 b33f 0000 00c0 ce96 a5bf
000003e0: 0000 0000 54db 923f 0000 0060 ab71 a3bf
000003f0: 0000 0000 4cde 7dbf 0000 00c0 add1 a43f
00000400: 0000 0060 c3a1 a6bf 0000 0000 e9d5 a33f
00000410: 0000 0000 0d77 a1bf 0000 0000 2785 803f
00000420: 0000 0000 646f 7e3f 0000 0020 2bf9 aebf
00000430: 0000 0080 93e4 9dbf 0000 0040 40de abbf
00000440: 0000 0040 bb66 ab3f 0000 0040 1ce4 b0bf
00000450: 0000 0000 4a79 73bf 0000 0000 04fa 65bf
00000460: 0000 0000 d244 a43f 0000 0040 03ad a7bf
00000470: 0000 00c0 8e81 a13f 0000 0000 df30 873f
00000480: 0000 0040 a47b a3bf 0000 0000 b1c0 933f
00000490: 0000 0040 cd74 a23f 0000 00c0 a066 ac3f
000004a0: 0000 00c0 463f a53f 0000 0000 98f7 8abf
000004b0: 0000 0040 53ae afbf 0000 0000 68d2 9d3f
000004c0: 0000 0040 a439 92bf 0000 0000 2760 85bf
000004d0: 0000 0080 79f8 a63f 0000 00a0 c103 afbf
000004e0: 0000 0000 8039 5cbf 0000 0000 c842 9e3f
000004f0: 0000 0000 29e0 9e3f 0000 0080 9420 9d3f
00000500: 0000 00e0 c12c a2bf 0000 0040 a080 aabf
00000510: 0000 0080 bc06 94bf 0000 0000 d719 843f
00000520: 0000 0000 0570 86bf 0000 0000 3424 7b3f
00000530: 0000 00c0 daa9 b0bf 0000 0000 470e 863f
00000540: 0000 00e0 3a47 a3bf 0000 0000 8379 87bf
00000550: 0000 0000 ea1a 8e3f 0000 0040 0ac1 a63f
00000560: 0000 0000 51dc b1bf 0000 0020 b30f b03f
00000570: 0000 0000 b09a 5e3f 0000 0060 7172 b1bf
00000580: 0000 0000 c10f 8b3f 0000 0080 74b4 a33f
00000590: 0000 0060 9e09 afbf 0000 00e0 5bb2 b03f
000005a0: 0000 0060 d227 b0bf 0000 00c0 ca72 abbf
000005b0: 0000 00e0 ff06 b33f 0000 00c0 7e0b a8bf
000005c0: 0000 0040 b404 a8bf 0000 0000 feee 94bf
000005d0: 0000 0000 60c1 b1bf 0000 0000 c0e0 22bf
000005e0: 0000 0000 88b3 643f 0000 0040 b837 aabf
000005f0: 0000 0000 806e 79bf 0000 0080 93b4 a5bf
00000600: 0000 0000 04a4 a8bf 0000 0000 81fd a6bf
00000610: 0000 0080 632b 953f 0000 0080 4088 b3bf
00000620: 0000 0040 110e af3f 0000 0060 db8a b0bf
00000630: 0000 0020 ffac abbf 0000 0040 85e8 a33f
00000640: 0000 00c0 2036 95bf 0000 0000 e31b 95bf
00000650: 0000 00c0 2430 b1bf 0000 0000 19cb 953f
00000660: 0000 0000 734f a4bf 0000 00a0 6afa a6bf
00000670: 0000 0000 189e 853f 0000 0040 b732 9abf
00000680: 0000 0000 64b0 623f 0000 00c0 4eed b2bf
00000690: 0000 0080 59aa 913f 0000 0020 9bbf b23f
000006a0: 0000 0000 b620 993f 0000 0000 47fc 8dbf
000006b0: 0000 0000 734b 9fbf 0000 0040 339b 94bf
000006c0: 0000 0000 1ae7 7e3f 0000 0000 977d 8b3f
000006d0: 0000 00c0 f5b6 92bf 0000 0000 6f1c 9c3f
000006e0: 0000 00c0 9a10 aa3f 0000 0020 7e90 b2bf
000006f0: 0000 0000 8580 833f 0000 0020 25d6 b23f
00000700: 0000 00c0 2954 ad3f 0000 0060 018b b03f
00000710: 0000 0000 f60a 973f 0000 0000 0d89 843f
00000720: 0000 0080 e393 963f 0000 0040 abea aebf
00000730: 0000 0060 30e3 b1bf 0000 0080 a33f 96bf
00000740: 0000 0000 33fa 80bf 0000 0080 1992 963f
00000750: 0000 0000 b9a0 843f 0000 0000 391b 8dbf
00000760: 0000 00c0 3145 ae3f 0000 0080 bc43 97bf
00000770: 0000 00c0 b485 a03f 0000 0080 6c87 983f
00000780: 0000 0060 5179 b13f 0000 0000 3a02 753f
00000790: 0000 0040 f597 ac3f 0000 0040 6364 a6bf
000007a0: 0000 0000 e6a3 8c3f 0000 0080 cf90 a03f
000007b0: 0000 0000 c072 823f 0000 0000 417c 8d3f
000007c0: 0000 0040 b4d1 95bf 0000 0080 73dd a73f
000007d0: 0000 0040 543a af3f 0000 00c0 eca8 afbf
000007e0: 0000 0080 64f5 adbf 0000 0040 00e0 ac3f
000007f0: 0000 0080 fb0a a53f 0000 0060 ba1d b3bf
-0.032921209931373596 -0.051994871348142624 0.03446796536445618 0.03461635112762451 0.00451129674911499 -0.016781996935606003 0.024944722652435303 0.0688980296254158
-0.03662947192788124 -0.015921901911497116 0.06975638121366501 0.016114190220832825 0.07526742666959763 0.05549313873052597 -0.06649882346391678 -0.0011979714035987854
-0.04127190634608269 0.0348953977227211 -0.005113713443279266 0.07300376147031784 -0.012931019067764282 -0.054413799196481705 -0.05784005671739578 0.04145152121782303
0.016149073839187622 -0.023125752806663513 0.061448805034160614 0.02282121777534485 0.008019030094146729 0.04571177065372467 -0.007952898740768433 0.024060599505901337
-0.03861558809876442 -0.06588923931121826 0.031410858035087585 -0.026239003986120224 -0.053733646869659424 -0.00202004611492157 0.024830281734466553 -0.02906675636768341
0.020419254899024963 0.0439058318734169 -0.0461500883102417 0.0731518492102623 0.031364090740680695 0.014715097844600677 0.051249854266643524 0.004638828337192535
-0.07695052772760391 -0.07637107372283936 0.037665970623493195 -0.01740604266524315 -0.017675016075372696 -0.07185075432062149 -0.032166045159101486 -0.019534029066562653
-0.055230580270290375 0.02292613685131073 -0.05874878913164139 -0.01383596658706665 -0.059042491018772125 -0.06552676856517792 0.050970666110515594 0.0473172590136528
-0.05686309188604355 0.03442571312189102 -0.05413629859685898 0.007578141987323761 -0.07560911774635315 -0.0028465986251831055 -0.029289033263921738 -0.03689194470643997
0.010266445577144623 0.06570257991552353 -0.017715860158205032 -0.05657158046960831 -0.07030003517866135 0.041754789650440216 0.019405893981456757 -0.03902660310268402
-0.03529540076851845 -0.010947853326797485 -0.022038534283638 -0.01988084614276886 0.008013196289539337 -0.060609184205532074 0.061824552714824677 -0.010699033737182617
-0.0553327351808548 0.06733790785074234 -0.05146487429738045 0.026935994625091553 -0.0030446574091911316 -0.055046822875738144 0.005467914044857025 0.046529531478881836
-0.037395067512989044 0.016221240162849426 0.0238255113363266 0.05617598444223404 0.008042678236961365 0.017723865807056427 0.045350559055805206 0.06109616905450821
-0.04769468307495117 -0.001957714557647705 0.010100863873958588 -0.04972296208143234 0.03584511578083038 -0.028349805623292923 0.04073667526245117 0.051596008241176605
-0.05953681096434593 -0.0016585513949394226 -0.0710492804646492 -0.022139061242341995 -0.008637383580207825 -0.023314304649829865 0.012821793556213379 -0.06319861114025116
-0.05993867665529251 0.026727870106697083 0.0745110735297203 -0.042166195809841156 0.018414795398712158 -0.03797660395503044 -0.007292076945304871 0.04066222161054611
-0.044202905148267746 0.03874137997627258 -0.03411141037940979 0.008066467940807343 0.00743044912815094 -0.06049475446343422 -0.029192261397838593 -0.05443001538515091
0.053518153727054596 -0.0659806877374649 -0.004754342138767242 -0.002682693302631378 0.039587557315826416 -0.04624185711145401 0.034191571176052094 0.011323682963848114
-0.03805268555879593 0.01928974688053131 0.036047376692295074 0.05547048896551132 0.04149838536977768 -0.01316756010055542 -0.061876870691776276 0.02912294864654541
-0.017798010259866714 -0.01043730229139328 0.044864460825920105 -0.06057553365826607 -0.0017226934432983398 0.02955162525177002 0.030151978135108948 0.028444595634937286
-0.035497721284627914 -0.05176258832216263 -0.01955694705247879 0.009814910590648651 -0.010955847799777985 0.006626322865486145 -0.06509177386760712 0.010769419372081757
-0.037652816623449326 -0.01146223396062851 0.014699772000312805 0.044441528618335724 -0.0697680115699768 0.06273955851793289 0.001867935061454773 -0.06815250962972641
0.013213641941547394 0.038486137986183167 -0.0606202594935894 0.06522154062986374 -0.06310763210058212 -0.053610168397426605 0.0743255540728569 -0.04696270078420639
-0.04691088944673538 -0.020442932844161987 -0.06935691833496094 -0.00014402717351913452 0.002527013421058655 -0.05120635777711868 -0.006208896636962891 -0.042393311858177185
-0.04812633991241455 -0.04490283131599426 0.020673327147960663 -0.07629778981208801 0.06065420061349869 -0.0646187886595726 -0.05405423417687416 0.03888336569070816
-0.02071429416537285 -0.02061419188976288 -0.0671408623456955 0.02128256857395172 -0.039668649435043335 -0.04487927630543709 0.010555446147918701 -0.025584090501070023
0.002281375229358673 -0.07393352687358856 0.0172513946890831 0.07323617488145828 0.02453884482383728 -0.014641337096691132 -0.030561253428459167 -0.02012329176068306
0.007544614374637604 0.013423137366771698 -0.018276061862707138 0.027452215552330017 0.050907932221889496 -0.0725172832608223 0.009522475302219391 0.07358009368181229
0.057282738387584686 0.06462105363607407 0.022502750158309937 0.010027028620243073 0.022048525512218475 -0.06038413196802139 -0.06987287849187851 -0.02172713726758957
-0.008289717137813568 0.022041700780391693 0.010072179138660431 -0.014212079346179962 0.05912166088819504 -0.022719331085681915 0.032270096242427826 0.023954100906848907
0.0682574138045311 0.005129076540470123 0.05584684759378433 -0.04373464733362198 0.01398448646068573 0.03235481679439545 0.009007930755615234 0.01439715176820755
-0.021307770162820816 0.04661141335964203 0.06099189072847366 -0.06183566898107529 -0.05851282179355621 0.0563964918255806 0.041099414229393005 -0.07467236369848251

blocks1.SCINet_Tree.workingblock.interact.level.phi.4.bias f8 [7]
00000000: 0000 0080 6684 b3bf 0000 0060 5333 b03f
00000010: 0000 0000 b184 8a3f 0000 0020 2efc b13f
00000020: 0000 0020 a39a b23f 0000 0000 52e7 8e3f
00000030: 0000 0080 3fb7 abbf
-0.07623901963233948 0.06328316777944565 0.012948401272296906 0.07025421410799026 0.07267207652330399 0.015089645981788635 -0.05413244664669037

blocks1.SCINet_Tree.workingblock.interact.level.psi.1.weight f8 [56, 7, 5]
00000000: 0000 0080 8072 ab3f 0000 0080 0e56 c23f
00000010: 0000 0000 4b62 9abf 0000 0000 52aa 94bf
00000020: 0000 00e0 8da7 c4bf 0000 0000 f683 98bf
00000030: 0000 0000 7dd7 bf3f 0000 0040 e710 c23f
00000040: 0000 00c0 3c30 c43f 0000 0040 d959 c33f
00000050: 0000 0080 8bdd aa3f 0000 0080 7385 a5bf
00000060: 0000 0000 cbaa 953f 0000 0000 a0bc 92bf
00000070: 0000 0080 84c5 b13f 0000 00a0 70b0 b6bf
00000080: 0000 00c0 5bc9 c4bf 0000 0080 2a3a aebf
00000090: 0000 0000 71c2 bd3f 0000 0080 215d c23f
000000a0: 0000 00a0 c456 c4bf 0000 0000 1050 8abf
000000b0: 0000 00c0 84be c43f 0000 0040 8f97 bfbf
000000c0: 0000 0080 73fa b93f 0000 0080 9c0c bf3f
000000d0: 0000 0080 b017 ad3f 0000 00c0 83d9 bdbf
000000e0: 0000 00c0 450d bdbf 0000 0000 d3cb b73f
000000f0: 0000 0040 1726 bfbf 0000 0080 83a0 b53f
00000100: 0000 0060 8735 bbbf 0000 0000 2465 813f
00000110: 0000 0080 1f85 bb3f 0000 0000 8073 503f
00000120: 0000 0000 5ab4 ab3f 0000 0000 8630 96bf
00000130: 0000 00c0 a039 c33f 0000 0000 ead4 8fbf
00000140: 0000 0000 a102 c1bf 0000 0000 38dc aebf
00000150: 0000 0000 0e04 a1bf 0000 0040 19c9 c43f
00000160: 0000 0000 90c2 b73f 0000 00a0 2754 bcbf
00000170: 0000 0080 b1f2 a3bf 0000 0080 3853 a0bf
00000180: 0000 0000 4a59 8c3f 0000 0000 7958 ae3f
00000190: 0000 0000 f152 983f 0000 0000 95c7 953f
000001a0: 0000 0000 760f af3f 0000 0000 ddad b53f
000001b0: 0000 0000 2f97 bbbf 0000 00c0 812e b6bf
000001c0: 0000 0000 90d4 5c3f 0000 0000 6aec ae3f
000001d0: 0000 0000 a41b a73f 0000 0000 013b b23f
000001e0: 0000 0000 8f34 c3bf 0000 0040 16f0 bfbf
000001f0: 0000 0000 e680 8f3f 0000 0000 30f0 a53f
00000200: 0000 0000 9e60 89bf 0000 0000 31fb 943f
00000210: 0000 0000 48c7 643f 0000 0000 e9fa 95bf
00000220: 0000 0000 759e b53f 0000 0080 b94f a4bf
00000230: 0000 0000 6de5 a03f 0000 0080 d959 b8bf
00000240: 0000 0000 509f 74bf 0000 0040 6b1c bfbf
00000250: 0000 0040 f32f c5bf 0000 0080 064b bebf
00000260: 0000 0040 73db afbf 0000 0000 3852 673f
00000270: 0000 0000 a462 743f 0000 0060 b4ca c4bf
00000280: 0000 0060 ae24 b1bf 0000 0080 b745 b63f
00000290: 0000 0000 e1e8 bc3f 0000 0000 cdff 9f3f
000002a0: 0000 0000 06dc 99bf 0000 0000 4c2c a43f
000002b0: 0000 00c0 98ba bbbf 0000 0000 3795 b93f
000002c0: 0000 0000 7f25 b8bf 0000 0000 1eed a03f
000002d0: 0000 0000 73e1 bf3f 0000 00a0 3e14 b8bf
000002e0: 0000 0080 6422 b73f 0000 0040 ab05 b4bf
000002f0: 0000 00c0 c278 c53f 0000 0000 96d6 923f
00000300: 0000 0040 8c10 c03f 0000 00c0 8603 afbf
00000310: 0000 0040 3ef3 b33f 0000 0080 e65e c43f
00000320: 0000 0000 bea5 c03f 0000 00c0 92c6 c03f
00000330: 0000 0000 0009 4fbf 0000 0080 03cd b9bf
00000340: 0000 0080 7338 b13f 0000 0000 fa46 bebf
00000350: 0000 0020 3135 b3bf 0000 0000 2ec1 8a3f
00000360: 0000 0080 c2d2 a13f 0000 0000 c76a bf3f
00000370: 0000 0040 f8bf aebf 0000 0000 52ac 923f
00000380: 0000 0000 93f5 b93f 0000 0000 e66b 853f
00000390: 0000 0000 6a6e a2bf 0000 0000 8a6a b93f
000003a0: 0000 0000 f98b 95bf 0000 0040 f527 bfbf
000003b0: 0000 0080 2d98 bdbf 0000 0000 42f0 81bf
000003c0: 0000 00c0 6fc4 c43f 0000 0080 c984 b83f
000003d0: 0000 0080 470e c23f 0000 0080 69a4 ae3f
000003e0: 0000 0040 1132 c03f 0000 0040 2662 aebf
000003f0: 0000 0000 2098 c53f 0000 0080 c953 b7bf
00000400: 0000 0040 574d bdbf 0000 0080 1b7f bf3f
00000410: 0000 0060 dc47 b9bf 0000 0080 f33c c3bf
00000420: 0000 0080 e82f c23f 0000 0080 f11b b7bf
00000430: 0000 0080 9888 b73f 0000 0040 731a c3bf
00000440: 0000 0000 5f5b 973f 0000 0000 bf8c c03f
00000450: 0000 0040 bfd1 aebf 0000 0060 ff1c b5bf
00000460: 0000 0000 ffbb 9a3f 0000 0000 7570 bd3f
00000470: 0000 0040 d55d c13f 0000 0080 5b6b bd3f
00000480: 0000 0000 b450 9c3f 0000 0000 7751 92bf
00000490: 0000 0000 fcca 77bf 0000 0000 dd77 90bf
000004a0: 0000 0000 0839 913f 0000 0020 01fd b6bf
000004b0: 0000 0000 54b3 8c3f 0000 0040 4246 bcbf
000004c0: 0000 0020 cf71 c3bf 0000 00c0 6b11 c13f
000004d0: 0000 00c0 e651 c43f 0000 0000 1314 c2bf
000004e0: 0000 00c0 06fe b6bf 0000 0080 256a c03f
000004f0: 0000 0080 6fd2 c3bf 0000 0000 4832 9f3f
00000500: 0000 0080 bd13 c2bf 0000 00c0 7d78 afbf
00000510: 0000 0080 4097 b33f 0000 0080 eebf c43f
00000520: 0000 00c0 6d06 c2bf 0000 00e0 0fe5 babf
00000530: 0000 0080 ba0e c5bf 0000 0000 6394 9fbf
00000540: 0000 0040 d0bb b8bf 0000 0000 e83f a6bf
00000550: 0000 0080 ddf2 a63f 0000 0000 289f 6abf
00000560: 0000 0000 371d c5bf 0000 0080 abdf b13f
00000570: 0000 0020 6c66 babf 0000 0000 a04a 8f3f
00000580: 0000 0040 bcf3 c33f 0000 0040 b864 c23f
00000590: 0000 0000 f0f8 99bf 0000 0000 b3c8 bbbf
000005a0: 0000 0000 1e85 9f3f 0000 0040 f249 c53f
000005b0: 0000 0040 1d1c bdbf 0000 00a0 49af c4bf
000005c0: 0000 00c0 43be bebf 0000 0080 c8cb b7bf
000005d0: 0000 0000 1501 c5bf 0000 0000 cf95 bb3f
000005e0: 0000 0000 1f7e 9fbf 0000 0000 d18b a83f
000005f0: 0000 0080 bb2e c1bf 0000 0080 667d c1bf
00000600: 0000 0040 b7be bbbf 0000 0080 7585 b53f
00000610: 0000 0000 f79f ba3f 0000 00c0 16fe c23f
00000620: 0000 0040 ee6d b3bf 0000 0080 bfd6 b33f
00000630: 0000 0000 00ae a0bf 0000 0040 4860 b03f
00000640: 0000 00c0 6dd2 b13f 0000 00e0 abb0 b4bf
00000650: 0000 0060 0d4f c2bf 0000 0000 40a9 98bf
00000660: 0000 0040 1fbe aabf 0000 0000 a819 913f
00000670: 0000 0000 c8e9 753f 0000 0080 ee4b a63f
00000680: 0000 0020 d4f1 b4bf 0000 0040 fec1 c13f
00000690: 0000 0000 a0a4 4dbf 0000 0080 0b39 b93f
000006a0: 0000 0040 0b9a a9bf 0000 0020 03bb c3bf
000006b0: 0000 0040 a7bd c23f 0000 0080 0a44 c3bf
000006c0: 0000 0000 8f05 acbf 0000 0000 86fc 8d3f
000006d0: 0000 0080 fdac bb3f 0000 00a0 0012 c3bf
000006e0: 0000 0000 235f b43f 0000 0080 4f4d be3f
000006f0: 0000 0000 d954 a03f 0000 0000 d707 b3bf
00000700: 0000 0000 e681 c23f 0000 0000 65d5 acbf
00000710: 0000 00e0 0ff3 bebf 0000 00c0 9606 b6bf
00000720: 0000 0080 e16c b13f 0000 0060 7641 b4bf
00000730: 0000 0080 d604 a4bf 0000 0040 43c4 c43f
00000740: 0000 00a0 e6b4 b5bf 0000 00c0 3d79 b4bf
00000750: 0000 0060 b144 b8bf 0000 0040 fe23 c1bf
00000760: 0000 0080 9f39 a33f 0000 0000 c38f adbf
00000770: 0000 0080 5679 c53f 0000 00c0 5999 c43f
00000780: 0000 0000 2986 c53f 0000 0080 fd0d a53f
00000790: 0000 0000 6274 9ebf 0000 0000 a4d4 9c3f
000007a0: 0000 0080 cd68 b33f 0000 0040 6c64 c3bf
000007b0: 0000 0000 2067 803f 0000 0080 d37e ad3f
000007c0: 0000 00c0 789c b7bf 0000 0080 76fb babf
000007d0: 0000 0080 c1c9 c3bf 0000 0000 e2ce 8bbf
000007e0: 0000 0040 c1c3 a9bf 0000 0060 dd8a c3bf
000007f0: 0000 0000 181b c1bf 0000 0000 ea6e b53f
0.05360795557498932 0.1432512402534485 -0.02576558291912079 -0.020180970430374146 -0.16136334836483002 -0.02394089102745056 0.12438184022903442 0.14114084839820862
0.1577220857143402 0.1511794626712799 0.052471503615379333 -0.04203377664089203 0.0211593359708786 -0.018297672271728516 0.06942012906074524 -0.08862975984811783
-0.16239497065544128 -0.05903752148151398 0.11624819040298462 0.14346712827682495 -0.15889795124530792 -0.01284801959991455 0.16206416487693787 -0.12340636551380157
0.10147783160209656 0.12128618359565735 0.05682136118412018 -0.11660026013851166 -0.11348377168178558 0.09295386075973511 -0.12167496979236603 0.08448049426078796
-0.10628553479909897 0.008493691682815552 0.10750004649162292 0.0010040998458862305 0.05411034822463989 -0.021669477224349976 0.1501961648464203 -0.01554282009601593
-0.13289272785186768 -0.06027388572692871 -0.03323405981063843 0.16238704323768616 0.09281253814697266 -0.11065910011529922 -0.038960978388786316 -0.031884923577308655
0.013842180371284485 0.05926874279975891 0.023753896355628967 0.02126915752887726 0.0606648325920105 0.08468419313430786 -0.10777562856674194 -0.0866471379995346
0.0017596632242202759 0.060397446155548096 0.04513275623321533 0.07121282815933228 -0.15004146099090576 -0.12475718557834625 0.015382573008537292 0.04284811019897461
-0.012391313910484314 0.020489469170570374 0.0025364309549331665 -0.021464958786964417 0.08444911241531372 -0.03967075049877167 0.03300037980079651 -0.09512099623680115
-0.005034744739532471 -0.12152738869190216 -0.16552582383155823 -0.11833229660987854 -0.06222114711999893 0.002846822142601013 0.00497688353061676 -0.16243605315685272
-0.06696595996618271 0.08700129389762878 0.11292845010757446 0.031249240040779114 -0.025253385305404663 0.039400458335876465 -0.10831598937511444 0.09993308782577515
-0.09432214498519897 0.03305906057357788 0.12453383207321167 -0.09405890852212906 0.09036853909492493 -0.07821150124073029 0.16774782538414001 0.018396705389022827
0.1255050003528595 -0.06057377904653549 0.07793034613132477 0.15914613008499146 0.13005805015563965 0.13105997443199158 -0.000947117805480957 -0.10078451037406921
0.06726762652397156 -0.11827051639556885 -0.07503039389848709 0.013063773512840271 0.03481109440326691 0.1227230429649353 -0.060058362782001495 0.018235474824905396
0.10140341520309448 0.01045970618724823 -0.035998642444610596 0.099281907081604 -0.021041765809059143 -0.12170346081256866 -0.11560329794883728 -0.008759036660194397
0.1622447669506073 0.09577617049217224 0.14106076955795288 0.0598481148481369 0.12652793526649475 -0.05934257060289383 0.16870498657226562 -0.09112223982810974
-0.11446137726306915 0.12303325533866882 -0.09875275939702988 -0.15029758214950562 0.14208704233169556 -0.09027013182640076 0.09192803502082825 -0.14924469590187073
0.02280949056148529 0.1292952299118042 -0.0601939931511879 -0.08247371762990952 0.026107773184776306 0.11499720811843872 0.1356760561466217 0.11491939425468445
0.027651607990264893 -0.017888888716697693 -0.005808815360069275 -0.016082242131233215 0.016819119453430176 -0.08979804068803787 0.014013916254043579 -0.11044706404209137
-0.1519106775522232 0.1333441436290741 0.15874943137168884 -0.14123761653900146 -0.08981363475322723 0.12823933362960815 -0.1548594832420349 0.030465245246887207
-0.14122742414474487 -0.06146614998579025 0.07652667164802551 0.16210728883743286 -0.1408211886882782 -0.10505770891904831 -0.16451197862625122 -0.03083948791027069
-0.09661580622196198 -0.043456315994262695 0.044821664690971375 -0.003249719738960266 -0.1649540662765503 0.06981918215751648 -0.10312534123659134 0.015279054641723633
0.15587571263313293 0.14369872212409973 -0.025363683700561523 -0.1085311770439148 0.03078123927116394 0.16631916165351868 -0.11371023952960968 -0.16159935295581818
-0.12009070813655853 -0.09295323491096497 -0.16409552097320557 0.107754647731781 -0.03075455129146576 0.04794171452522278 -0.13423866033554077 -0.13663941621780396
-0.10837884247303009 0.08406767249107361 0.10400336980819702 0.14837917685508728 -0.07589615881443024 0.07749554514884949 -0.0325775146484375 0.06396915018558502
0.0696171373128891 -0.08082079142332077 -0.14303748309612274 -0.02408313751220703 -0.052231766283512115 0.01669943332672119 0.005349904298782349 0.043548062443733215
-0.08181501179933548 0.1387327015399933 -0.0009046345949172974 0.09852668642997742 -0.05000338703393936 -0.15414465963840485 0.14641276001930237 -0.15051394701004028
-0.05472990870475769 0.014641806483268738 0.10810837149620056 -0.14898689091205597 0.07957667112350464 0.11836716532707214 0.03189733624458313 -0.07433837652206421
0.14458918571472168 -0.05631557106971741 -0.12089633196592331 -0.08603803813457489 0.06806764006614685 -0.07912387698888779 -0.03909941017627716 0.1622394621372223
-0.08479157835245132 -0.07997499406337738 -0.09479817003011703 -0.1339109241962433 0.03754900395870209 -0.05773743987083435 0.16776543855667114 0.16092988848686218
0.16815674304962158 0.04112236201763153 -0.029740840196609497 0.02815490961074829 0.07581791281700134 -0.15150216221809387 0.008009195327758789 0.0576082319021225
-0.09223131835460663 -0.10539951920509338 -0.15459460020065308 -0.01357819139957428 -0.05032161623239517 -0.1526753157377243 -0.13363933563232422 0.08372366428375244

blocks1.SCINet_Tree.workingblock.interact.level.psi.1.bias f8 [56]
00000000: 0000 0000 82a9 b53f 0000 0080 7d96 bb3f
00000010: 0000 0000 b7f9 aebf 0000 0000 5226 92bf
00000020: 0000 0000 381e 9e3f 0000 0040 d1ee b7bf
00000030: 0000 0000 94d6 963f 0000 00c0 d57c c03f
00000040: 0000 0000 34dc afbf 0000 00c0 fec3 c43f
00000050: 0000 0080 f301 b93f 0000 0000 155f bc3f
00000060: 0000 00e0 62fa b3bf 0000 0000 190a 97bf
00000070: 0000 0000 e732 99bf 0000 0000 4200 a53f
00000080: 0000 0080 6177 be3f 0000 0080 ca0e a1bf
00000090: 0000 0000 62e0 bdbf 0000 0080 582c b0bf
000000a0: 0000 0000 40ea 9b3f 0000 0000 6860 bc3f
000000b0: 0000 0040 0ee7 b33f 0000 0060 ea36 b1bf
000000c0: 0000 00c0 6de6 c0bf 0000 0000 4eaf bdbf
000000d0: 0000 00c0 4ef7 b23f 0000 0000 5600 9dbf
000000e0: 0000 0000 2525 b43f 0000 0000 0ace 913f
000000f0: 0000 0000 e23b 8dbf 0000 0000 251a bcbf
00000100: 0000 0000 83f5 a7bf 0000 00a0 9afc c4bf
00000110: 0000 0060 116f c2bf 0000 0000 0485 93bf
00000120: 0000 0000 4c4f 8d3f 0000 0040 ec9b b33f
00000130: 0000 0040 5292 c43f 0000 00c0 be5b aebf
00000140: 0000 0080 bcf7 c23f 0000 0060 852c c4bf
00000150: 0000 0080 ed9a b53f 0000 0040 0e78 b33f
00000160: 0000 00c0 4d99 c1bf 0000 0000 de60 b13f
00000170: 0000 0000 4441 8ebf 0000 0000 bc6e a1bf
00000180: 0000 0080 8b68 a3bf 0000 0080 c573 a0bf
00000190: 0000 0080 b7c9 b73f 0000 0000 e8dd 72bf
000001a0: 0000 00a0 a24b c3bf 0000 0080 ac9e bd3f
000001b0: 0000 00a0 a1d1 b2bf 0000 0000 be37 abbf
0.0846177339553833 0.10776504874229431 -0.0604989230632782 -0.017724305391311646 0.029412150382995605 -0.09348781406879425 0.02230292558670044 0.12880966067314148
-0.06222689151763916 0.16223129630088806 0.09768602252006531 0.11082583665847778 -0.07803934067487717 -0.022499457001686096 -0.02460823953151703 0.04101759195327759
0.1190091073513031 -0.03331597149372101 -0.11670506000518799 -0.06317666172981262 0.027260780334472656 0.11084604263305664 0.07774437963962555 -0.06724419444799423
-0.1320321261882782 -0.11595618724822998 0.07408611476421356 -0.02832159399986267 0.07869178056716919 0.01738753914833069 -0.014274373650550842 -0.10977393388748169
-0.04679498076438904 -0.1639588624238968 -0.14401452243328094 -0.0190621018409729 0.014311403036117554 0.07659794390201569 0.16071537137031555 -0.0592937096953392
0.14818531274795532 -0.15760867297649384 0.08439525961875916 0.07605065405368805 -0.13749095797538757 0.06788432598114014 -0.014772921800613403 -0.03404796123504639
-0.037906989455223083 -0.03213326632976532 0.09292170405387878 -0.004606157541275024 -0.1507457047700882 0.11570242047309875 -0.07351122051477432 -0.05315965414047241
