exp/ETT_checkpoints/SCINet_ETTh1_ftM_sl48_ll24_pl24_lr0.003_bs8_hid4.0_s1_l3_dp0.5_invFalse_itr0/checkpoint.pth (torch, 428509 bytes, 114 tensors)

inv_timescales f8 [4]
0	0x3ff0000000000000	1.0
1	0x3fa7c3d2e0000000	0.046415891498327255
2	0x3f61a62d60000000	0.002154434798285365
3	0x3f1a36e2c0000000	9.99999901978299e-05

blocks1.SCINet_Tree.workingblock.interact.level.phi.1.weight f8 [28, 7, 5]
0	0x3f98ad8300000000	0.02409939467906952
1	0xbfa821e100000000	-0.04713347554206848
2	0x3fc4913c00000000	0.16068220138549805
3	0xbfc4239180000000	-0.15733546018600464
4	0x3fc4b48f80000000	0.16176027059555054
5	0x3fba479480000000	0.10265472531318665
6	0xbfbf8f3860000000	-0.12327911704778671
7	0x3fbcf52900000000	0.11311584711074829
8	0x3fbe10fa80000000	0.11744657158851624
9	0xbfbc9f3fe0000000	-0.11180495470762253
10	0x3fc31b99c0000000	0.14927980303764343
11	0xbfaaaa0e00000000	-0.05207866430282593
12	0xbf8a0bf400000000	-0.012718111276626587
13	0xbfc0733360000000	-0.12851564586162567
14	0x3fb9f78780000000	0.10143324732780457
15	0x3faabe4180000000	0.052232787013053894
16	0xbfb40c5a20000000	-0.07831347733736038
17	0x3f76096400000000	0.0053800493478775024
18	0x3fa27f9300000000	0.03612956404685974
19	0x3fbd496f00000000	0.11440175771713257
20	0x3fa5b0f700000000	0.04236575961112976
21	0x3fa053e400000000	0.031890034675598145
22	0xbfb2a0e320000000	-0.07276744395494461
23	0xbfc2e08ae0000000	-0.14747749269008636
24	0x3fa7595e00000000	0.04560369253158569
25	0xbfc2313ee0000000	-0.1421278566122055
26	0x3fbb6ba800000000	0.10711145401000977
27	0xbfa2349200000000	-0.035557329654693604
28	0x3f946f4400000000	0.019955694675445557
29	0xbfbeaf3900000000	-0.1198611855506897
30	0xbfc50eb560000000	-0.16451136767864227
31	0xbfbbff7fe0000000	-0.10936736315488815
32	0x3fb4a0c0c0000000	0.08057789504528046
33	0x3fb88dd880000000	0.09591439366340637
34	0x3fc3ca5fc0000000	0.1546134650707245
35	0x3fbc674380000000	0.11095067858695984
36	0xbfc56fe540000000	-0.16747727990150452
37	0xbfb5861d80000000	-0.08407768607139587
38	0xbfbfd9fac0000000	-0.12441985309123993
39	0xbfc5847a20000000	-0.1681053787469864
40	0xbfaad66ac0000000	-0.052417121827602386
41	0xbf85c3da00000000	-0.010627463459968567
42	0xbfb83c11e0000000	-0.09466659277677536
43	0xbfc50fe320000000	-0.16454733908176422
44	0x3fc36e8b40000000	0.15181103348731995
45	0xbf82d4aa00000000	-0.009194687008857727
46	0xbfc11bd200000000	-0.13366150856018066
47	0x3fc3921b00000000	0.15289628505706787
48	0x3fb73a1300000000	0.09072989225387573
49	0xbfa1a1b900000000	-0.034436970949172974
50	0xbf68080800000000	-0.002933517098426819
51	0xbfba182b40000000	-0.10193128883838654
52	0xbfbbcaee00000000	-0.10856521129608154
53	0x3fb5d43900000000	0.0852695107460022
54	0xbf855baa00000000	-0.010428741574287415
55	0xbfbdc04040000000	-0.11621476709842682
56	0xbfbef8be80000000	-0.12098303437232971
57	0x3fc5751780000000	0.16763585805892944
58	0xbfc0755f00000000	-0.12858188152313232
59	0xbf8d0e9800000000	-0.014187991619110107
60	0xbfaecd4680000000	-0.06015987694263458
61	0xbfa6d943c0000000	-0.044626347720623016
62	0xbf67761800000000	-0.0028639286756515503
63	0x3fa32f0100000000	0.03746798634529114
64	0x3fa5d14080000000	0.042612090706825256
65	0xbf73a4b400000000	-0.004795745015144348
66	0xbf91ecef00000000	-0.01750539243221283
67	0x3fbd319a80000000	0.1140381395816803
68	0xbf789f5000000000	-0.006011307239532471
69	0x3fbcec3780000000	0.11297938227653503
70	0x3fa0c90b80000000	0.03278385102748871
71	0x3fc040e3c0000000	0.1269802749156952
72	0xbfc1214320000000	-0.1338275820016861
73	0xbfa66ef200000000	-0.04381519556045532
74	0xbfb2a4d7a0000000	-0.0728277936577797
75	0xbfb5b206a0000000	-0.08474770933389664
76	0x3fb0bd9dc0000000	0.06539331376552582
77	0x3fbb88af00000000	0.1075543761253357
78	0x3f76322800000000	0.005418926477432251
79	0x3fa6e87500000000	0.04474225640296936
80	0x3fc3138a00000000	0.149033784866333
81	0xbfc1746700000000	-0.13636481761932373
82	0xbfc3520dc0000000	-0.15094158053398132
83	0xbfac956740000000	-0.05582735687494278
84	0xbfc3cd3900000000	-0.1547003984451294
85	0x3fc1820100000000	0.13677990436553955
86	0x3fb5afc780000000	0.08471342921257019
87	0x3fb4b35580000000	0.0808614194393158
88	0xbfc4018500000000	-0.15629637241363525
89	0xbfc1ce0d00000000	-0.13910067081451416
90	0xbfb5d22360000000	-0.08523770421743393
91	0xbfbd1b4440000000	-0.11369730532169342
92	0x3fc38ea880000000	0.1527910828590393
93	0x3fc00f8b40000000	0.12547436356544495
94	0xbfb94787e0000000	-0.09874772280454636
95	0x3fc374c400000000	0.15200090408325195
96	0x3f80e4be00000000	0.008248791098594666
97	0xbf92d62700000000	-0.01839505136013031
98	0xbfc5378040000000	-0.1657562553882599
99	0x3f8b643200000000	0.013374701142311096
100	0x3fb425da40000000	0.07870258390903473
101	0x3f9cbdc200000000	0.02806761860847473
102	0x3fc0cf6080000000	0.13132864236831665
103	0x3fc1aa8740000000	0.13801661133766174
104	0x3fc2c61740000000	0.14667025208473206
105	0xbfb4afa940000000	-0.08080537617206573
106	0xbfb40190e0000000	-0.07814889401197433
107	0xbfc4fb3620000000	-0.16391636431217194
108	0x3fb440de40000000	0.07911480963230133
109	0x3fc29b5800000000	0.14536571502685547
110	0x3fb6391800000000	0.08680868148803711
111	0x3fbbdf5480000000	0.10887649655342102
112	0x3fbaee7a00000000	0.1052013635635376
113	0x3fc5020040000000	0.1641235649585724
114	0x3fc33e14c0000000	0.15033206343650818
115	0x3fa78cfe80000000	0.04599757492542267
116	0x3fbacdb300000000	0.1047012209892273
117	0xbfc1e83e80000000	-0.13990002870559692
118	0xbfb4eebe20000000	-0.08176792412996292
119	0x3fc4bde840000000	0.16204550862312317
120	0xbfb8c0f820000000	-0.0966944769024849
121	0xbf85d07a00000000	-0.010651543736457825
122	0x3f851af400000000	0.010305315256118774
123	0x3fb6770f00000000	0.08775418996810913
124	0x3fb60e1b80000000	0.08615276217460632
125	0xbfba1ffe00000000	-0.10205066204071045
126	0xbfc052c2a0000000	-0.12752564251422882
127	0xbfc18e3a80000000	-0.13715296983718872
128	0x3f970b8800000000	0.02250492572784424
129	0xbfb581edc0000000	-0.08401380479335785
130	0xbf9a5dbf00000000	-0.02574823796749115
131	0xbfc5963ee0000000	-0.1686476320028305
132	0xbfb7a35560000000	-0.0923360213637352
133	0xbf79160c00000000	-0.006124541163444519
134	0xbf777e6800000000	-0.0057357847690582275
135	0x3f47104000000000	0.0007038414478302002
136	0xbfbc521c00000000	-0.11062788963317871
137	0x3fc37e0040000000	0.1522827446460724
138	0x3fa655c680000000	0.04362316429615021
139	0xbfa9ccbf80000000	-0.050390228629112244
140	0xbf8eee5c00000000	-0.015103071928024292
141	0xbfa1e57980000000	-0.034953877329826355
142	0xbfada8d840000000	-0.05792880803346634
143	0x3fc05c9940000000	0.12782588601112366
144	0x3fb1412740000000	0.06740041077136993
145	0x3fc31d0e80000000	0.1493242383003235
146	0x3f91fd0500000000	0.017566755414009094
147	0xbf9467e300000000	-0.01992754638195038
148	0x3fc421fa80000000	0.15728694200515747
149	0xbfc4dd0ec0000000	-0.16299614310264587
150	0x3fb2bb0080000000	0.07316592335700989
151	0x3fbeb1a180000000	0.11989793181419373
152	0xbf5155e000000000	-0.0010580718517303467
153	0xbfb10e34e0000000	-0.0666230246424675
154	0xbfbf8b3200000000	-0.12321770191192627
155	0x3f9e19e800000000	0.029395699501037598
156	0x3f658b0000000000	0.0026297569274902344
157	0xbfc13b96c0000000	-0.13463100790977478
158	0xbfbf9d81c0000000	-0.1234971135854721
159	0xbfb0aab340000000	-0.06510467827320099
160	0x3f85abd600000000	0.01058165729045868
161	0xbfaf329b80000000	-0.06093297898769379
162	0x3fc5980ec0000000	0.16870293021202087
163	0xbfc23bd900000000	-0.14245140552520752
164	0xbfa0df6e00000000	-0.032954633235931396
165	0x3fbafeb780000000	0.10544916987419128
166	0x3f749ba400000000	0.0050312429666519165
167	0x3fa7906980000000	0.0460236519575119
168	0x3faff3b180000000	0.062406107783317566
169	0x3f9ed77d00000000	0.030118897557258606
170	0xbf96bc8c00000000	-0.02220362424850464
171	0x3fb8726a00000000	0.09549582004547119
172	0x3f97a12800000000	0.02307569980621338
173	0x3fb15baa80000000	0.0678049623966217
174	0x3fb11a3080000000	0.0668058693408966
175	0xbfaa0fe940000000	-0.05090264230966568
176	0x3fa55fde80000000	0.04174704849720001
177	0x3f4f202000000000	0.0009498745203018188
178	0x3fc4a22f00000000	0.1611994504928589
179	0xbfba928a60000000	-0.1037985309958458
180	0xbfadb8f740000000	-0.05805180221796036
181	0x3f93a95200000000	0.01920059323310852
182	0x3fb45790c0000000	0.07946114242076874
183	0xbfbc8c89e0000000	-0.11151944845914841
184	0xbfba1012a0000000	-0.10180775076150894
185	0xbfbe1da100000000	-0.11763960123062134
186	0x3fa9137000000000	0.04897642135620117
187	0xbfbf962640000000	-0.12338484823703766
188	0xbfc4368900000000	-0.15791428089141846
189	0xbf92a0f000000000	-0.018192052841186523
190	0xbfb8514f40000000	-0.09499068558216095
191	0x3fb022a780000000	0.06302878260612488
192	0xbfb7f9e240000000	-0.09365667402744293
193	0xbfbefa59a0000000	-0.121007539331913
194	0xbfb50e67e0000000	-0.08225106447935104
195	0xbfbaaa22e0000000	-0.10415857285261154
196	0x3f8fd02e00000000	0.015533789992332458
197	0xbfc285a640000000	-0.14470365643501282
198	0xbfb1998560000000	-0.06874879449605942
199	0x3fc2f5d940000000	0.1481277048587799
200	0xbfc37e9460000000	-0.1523004025220871
201	0xbfbc799f80000000	-0.11123082041740417
202	0x3fb66bd400000000	0.08758282661437988
203	0x3fbb844100000000	0.1074867844581604
204	0xbf92e51c00000000	-0.018452107906341553
205	0xbf97a8e200000000	-0.02310517430305481
206	0xbfb5413d80000000	-0.08302673697471619
207	0xbfa6388880000000	-0.04340006411075592
208	0xbfa1b11a00000000	-0.03455430269241333
209	0x3fbf346d80000000	0.1218937337398529
210	0x3fbad04180000000	0.10474023222923279
211	0xbf7be0ac00000000	-0.0068060606718063354
212	0x3fb1998040000000	0.06874848902225494
213	0xbf6cbd4800000000	-0.0035082250833511353
214	0x3fba549c00000000	0.10285353660583496
215	0x3faab0f580000000	0.05213133990764618
216	0x3fba8ce300000000	0.10371226072311401
217	0xbf988ff500000000	-0.023986652493476868
218	0x3fa2932880000000	0.03627897799015045
219	0x3fa6baa900000000	0.04439285397529602
220	0xbfbeb536c0000000	-0.11995260417461395
221	0xbfa2bcdf80000000	-0.03659723699092865
222	0x3fb0205940000000	0.0629936009645462
223	0xbfabdc5280000000	-0.054415300488471985
224	0x3f935f6400000000	0.01891857385635376
225	0xbfb06c31e0000000	-0.06415092200040817
226	0xbf87fff800000000	-0.011718690395355225
227	0x3fbf48f180000000	0.12220677733421326
228	0xbf83c58000000000	-0.009654045104980469
229	0xbfc06bf960000000	-0.12829510867595673
230	0x3f75cba000000000	0.005321145057678223
231	0x3fb2fe2d80000000	0.07419094443321228
232	0x3fb9ede200000000	0.10128605365753174
233	0xbfc21ba460000000	-0.1414685696363449
234	0xbfc18dee40000000	-0.13714388012886047
235	0xbfc3fd8a40000000	-0.1561749279499054
236	0xbfb3df7160000000	-0.07762821763753891
237	0xbfbe9bb3c0000000	-0.11956332623958588
238	0x3fc0df1fc0000000	0.13180920481681824
239	0xbfb21a1060000000	-0.0707102045416832
240	0xbf93a55900000000	-0.019185438752174377
241	0xbfa1e53f80000000	-0.03495214879512787
242	0x3fad6d6000000000	0.05747509002685547
243	0x3f97522600000000	0.022774308919906616
244	0x3fbdb3b480000000	0.11602333188056946
245	0xbfb75cc300000000	-0.0912591814994812
246	0xbfb3e64ca0000000	-0.07773283869028091
247	0xbfa2fc0080000000	-0.037078872323036194
248	0x3f8b894400000000	0.013445407152175903
249	0x3f8e983a00000000	0.014938786625862122
250	0x3fbd040880000000	0.11334279179573059
251	0x3fbf5fe080000000	0.12255671620368958
252	0xbfb51e9e80000000	-0.0824984610080719
253	0x3f9604c600000000	0.021502584218978882
254	0xbfb1d46b40000000	-0.06964750587940216
255	0x3fbd6e6000000000	0.11496543884277344

blocks1.SCINet_Tree.workingblock.interact.level.phi.1.bias f8 [28]
0	0xbfc2891c40000000	-0.1448092758655548
1	0x3f92437e00000000	0.0178355872631073
2	0x3fa0e51700000000	0.03299781680107117
3	0xbfa884b840000000	-0.04788757115602493
4	0xbfb4d756a0000000	-0.08141080290079117
5	0xbfbc852e80000000	-0.11140719056129456
6	0x3fc1585d00000000	0.13550913333892822
7	0x3fa7be8c00000000	0.04637563228607178
8	0x3fa29c9780000000	0.036350950598716736
9	0x3fba717480000000	0.10329368710517883
10	0x3fa1bedf00000000	0.034659355878829956
11	0x3fbeecfd80000000	0.12080368399620056
12	0x3fa3c76100000000	0.038630515336990356
13	0xbfa6848080000000	-0.04397965967655182
14	0xbfa1813000000000	-0.03418874740600586
15	0x3fb3e64000000000	0.07773208618164062
16	0x3fa19a5600000000	0.03438061475753784
17	0xbfbfbddfc0000000	-0.123990997672081
18	0x3faaabd380000000	0.05209217965602875
19	0xbfc3be5540000000	-0.1542460024356842
20	0xbfa44dda80000000	-0.03965647518634796
21	0xbfba551fe0000000	-0.10286139696836472
22	0x3f84311c00000000	0.009859293699264526
23	0x3fc160e040000000	0.13576892018318176
24	0x3fb62e5480000000	0.08664444088935852
25	0x3fbd46fd00000000	0.11436444520950317
26	0xbfb2b4a8e0000000	-0.07306914776563644
27	0x3fc4604b40000000	0.1591886579990387

blocks1.SCINet_Tree.workingblock.interact.level.phi.4.weight f8 [7, 28, 3]
0	0xbfb4192600000000	-0.07850873470306396
1	0xbf91f8d200000000	-0.017550736665725708
2	0xbfa1df3a00000000	-0.034906208515167236
3	0xbfb66b2480000000	-0.0875723659992218
4	0xbfa6f13940000000	-0.044809140264987946
5	0xbfaa906800000000	-0.05188298225402832
6	0x3f9300d580000000	0.018557868897914886
7	0xbfa0c85100000000	-0.0327782928943634
8	0xbfa89acf60000000	-0.04805610701441765
9	0xbf931cdc80000000	-0.018664784729480743
10	0xbf95398f80000000	-0.020727388560771942
11	0xbfb84ccfc0000000	-0.09492205083370209
12	0xbfb22e63a0000000	-0.07102034240961075
13	0xbfad20e3a0000000	-0.0568915493786335
14	0xbf9cf57e00000000	-0.02828022837638855
15	0xbfbb4bb2a0000000	-0.1066238060593605
16	0x3f9748aa80000000	0.02273813635110855
17	0xbf924fec80000000	-0.01788301020860672
18	0x3fae81bec0000000	0.0595836266875267
19	0x3f845a1300000000	0.009937427937984467
20	0x3fb659e220000000	0.08730901032686234
21	0x3fb2a47020000000	0.07282162457704544
22	0xbfb1894840000000	-0.06850101053714752
23	0xbfb0b48900000000	-0.06525474786758423
24	0xbf95606680000000	-0.02087555080652237
25	0xbf8ca1ed00000000	-0.013980723917484283
26	0xbfa3460880000000	-0.037643685936927795
27	0x3fa7ffa2c0000000	0.04687222093343735
28	0x3fa40fcc40000000	0.03918302804231644
29	0xbf7fa44600000000	-0.007725022733211517
30	0xbfb40b5d60000000	-0.0782984122633934
31	0xbfbbed2960000000	-0.10908754914999008
32	0x3fb88988e0000000	0.09584861248731613
33	0xbf971fa880000000	-0.02258170396089554
34	0xbf2f73c000000000	-0.00023996084928512573
35	0xbf95f9ac80000000	-0.021460242569446564
36	0x3fb9bfbe60000000	0.10058202594518661
37	0xbfb80d30a0000000	-0.0939512625336647
38	0xbf89970d00000000	-0.012495137751102448
39	0x3fa64474c0000000	0.04349102824926376
40	0xbfb9a2df60000000	-0.1001414880156517
41	0xbfa72ff780000000	-0.045287832617759705
42	0x3f8e1e4600000000	0.01470617949962616
43	0xbfb33c8e00000000	-0.0751427412033081
44	0xbfb1848520000000	-0.06842834502458572
45	0xbfa9ef44e0000000	-0.0506536029279232
46	0xbfb6f63640000000	-0.08969439566135406
47	0xbfb4e28160000000	-0.08158119767904282
48	0x3f97933580000000	0.023022495210170746
49	0xbfb023dba0000000	-0.0630471482872963
50	0xbf82997d00000000	-0.009081818163394928
51	0xbfba48b840000000	-0.10267211496829987
52	0x3fa4893640000000	0.04010934382677078
53	0x3fa2e267c0000000	0.03688358515501022
54	0x3f86408100000000	0.010865218937397003
55	0x3fb77b50a0000000	0.09172538667917252
56	0xbfb078d5c0000000	-0.06434379518032074
57	0x3fb9795160000000	0.0995074138045311
58	0x3fb378de60000000	0.07606305927038193
59	0x3fabe6a2c0000000	0.0544939860701561
60	0x3fb86f8f60000000	0.09545227140188217
61	0x3fb210abe0000000	0.07056688517332077
62	0x3f92194c80000000	0.017674632370471954
63	0xbfae5b2ac0000000	-0.059289298951625824
64	0x3fbb31ce20000000	0.10622871667146683
65	0xbfb4b58880000000	-0.08089497685432434
66	0xbf8089b800000000	-0.008075177669525146
67	0x3f62475c00000000	0.002231292426586151
68	0xbfa15781c0000000	-0.03387074917554855
69	0x3fbbc198a0000000	0.10842279344797134
70	0xbf67e3b800000000	-0.002916201949119568
71	0x3f93663780000000	0.01894461363554001
72	0xbfb093f1c0000000	-0.06475745141506195
73	0xbf963deb00000000	-0.02172057330608368
74	0x3fb6d23f60000000	0.08914562314748764
75	0x3fb18c5da0000000	0.0685480609536171
76	0xbfa905ed20000000	-0.04887333884835243
77	0xbf85692d00000000	-0.010454513132572174
78	0x3f9a775d80000000	0.025845967233181
79	0xbf84fb7800000000	-0.010245263576507568
80	0xbfb2bf8220000000	-0.0732346847653389
81	0x3f9bc59180000000	0.02712085098028183
82	0x3f92692680000000	0.017979241907596588
83	0xbfab2f8da0000000	-0.05309717729687691
84	0x3fb64751a0000000	0.08702573925256729
85	0x3f8b2a5c00000000	0.013264387845993042
86	0xbf91031480000000	-0.01661331206560135
87	0xbfb96315a0000000	-0.09916815906763077
88	0x3fb9b7d960000000	0.10046156495809555
89	0xbfa7970c00000000	-0.0460742712020874
90	0x3fa14601c0000000	0.03373723477125168
91	0xbfb913a120000000	-0.09795577079057693
92	0x3f8a87b400000000	0.012954145669937134
93	0xbfa04a6a40000000	-0.03181774169206619
94	0xbfbb5d94c0000000	-0.10689668357372284
95	0x3fad8e6340000000	0.05772695690393448
96	0x3f9c993980000000	0.02792825549840927
97	0x3fb4032ea0000000	0.07817355543375015
98	0x3f95511180000000	0.020817063748836517
99	0xbfb6157540000000	-0.08626492321491241
100	0x3f88a02a00000000	0.01202423870563507
101	0x3fb29713e0000000	0.07261776179075241
102	0x3fb77c3f60000000	0.09173961728811264
103	0xbf8bbe8b00000000	-0.013547025620937347
104	0x3fb5741120000000	0.08380229026079178
105	0xbf9c90c800000000	-0.02789604663848877
106	0xbfb6f08d60000000	-0.08960803598165512
107	0xbf9812b200000000	-0.023508816957473755
108	0x3fb4099d60000000	0.07827170938253403
109	0xbf70db1c00000000	-0.004115208983421326
110	0xbfa8868800000000	-0.04790139198303223
111	0xbf7ddf0600000000	-0.0072927698493003845
112	0xbf94505a80000000	-0.019837774336338043
113	0x3fb9fa62e0000000	0.10147684067487717
114	0xbfb5055640000000	-0.08211268484592438
115	0x3fbb55b9a0000000	0.10677681118249893
116	0xbfb8171940000000	-0.09410245716571808
117	0x3fb7b4cfa0000000	0.09260270744562149
118	0xbfb4385820000000	-0.07898474484682083
119	0x3f938bf380000000	0.019088558852672577
120	0xbf9b066d80000000	-0.026391707360744476
121	0x3fb65226e0000000	0.08719103783369064
122	0xbfb6b562e0000000	-0.08870523422956467
123	0x3fb1d7d4e0000000	0.06969957798719406
124	0x3fb7ed4d60000000	0.093464694917202
125	0xbf932d7580000000	-0.018728099763393402
126	0xbfa330cc40000000	-0.03748167306184769
127	0xbfb3e300c0000000	-0.07768253982067108
128	0xbfbbcab820000000	-0.10856200009584427
129	0x3fb1470ee0000000	0.06749051064252853
130	0x3fa2bf74c0000000	0.03661694377660751
131	0x3f932dbd80000000	0.01872917264699936
132	0x3fa21ae840000000	0.03536153584718704
133	0xbfbb8706c0000000	-0.10752908885478973
134	0x3fa441ddc0000000	0.03956501930952072
135	0xbfa3d3fcc0000000	-0.03872670978307724
136	0x3fac20c340000000	0.0549374595284462
137	0x3fa8bf4c40000000	0.04833448678255081
138	0xbf821f6700000000	-0.00884895771741867
139	0x3fa2164240000000	0.035326071083545685
140	0x3f48f21000000000	0.000761277973651886
141	0xbfa296f280000000	-0.036307886242866516
142	0xbfaae61c80000000	-0.05253686010837555
143	0xbfa375c200000000	-0.03800779581069946
144	0xbfa20f29c0000000	-0.035271935164928436
145	0xbf83bfaa00000000	-0.009642913937568665
146	0xbf91544700000000	-0.016923055052757263
147	0x3f98ff5280000000	0.024411477148532867
148	0xbfb9911ec0000000	-0.09987060725688934
149	0xbf76c97400000000	-0.005563214421272278
150	0x3facbeb3c0000000	0.05614244192838669
151	0x3fad3b1340000000	0.05709133297204971
152	0xbf9275aa80000000	-0.018026985228061676
153	0xbfa55a3d80000000	-0.04170410335063934
154	0x3fb4fa5d20000000	0.08194524794816971
155	0xbfa2fa7980000000	-0.037067219614982605
156	0x3fad37a8c0000000	0.057065270841121674
157	0x3fb8056aa0000000	0.09383264929056168
158	0xbfb4475f40000000	-0.07921405136585236
159	0xbfb591c840000000	-0.08425571024417877
160	0xbfbba986e0000000	-0.10805552452802658
161	0xbf8fc1b200000000	-0.015506163239479065
162	0xbfb65748c0000000	-0.08726935088634491
163	0x3fafee9540000000	0.062367118895053864
164	0x3fbaa67c60000000	0.10410287231206894
165	0xbf8bf5d400000000	-0.01365247368812561
166	0xbf9957f300000000	-0.02474956214427948
167	0x3faf936dc0000000	0.0616716668009758
168	0x3fb7c809a0000000	0.09289608150720596
169	0x3fb38df660000000	0.07638492435216904
170	0x3f9ab49380000000	0.026079468429088593
171	0xbfb1b99740000000	-0.06923814117908478
172	0x3fa9c52540000000	0.05033222585916519
173	0x3fba5bf7e0000000	0.1029658243060112
174	0x3fa572a4c0000000	0.04189028590917587
175	0x3f52ec2800000000	0.0011549368500709534
176	0xbfa8502080000000	-0.0474863201379776
177	0x3fac7e93c0000000	0.05565320700407028
178	0x3fa826afc0000000	0.04717015475034714
179	0x3faab6a840000000	0.05217481404542923
180	0xbfba2d2c60000000	-0.10225179046392441
181	0xbfa9098360000000	-0.048900704830884933
182	0x3fa2c378c0000000	0.036647580564022064
183	0x3f5beca800000000	0.0017043724656105042
184	0x3fb294b460000000	0.07258155196905136
185	0x3fb14022e0000000	0.06738489121198654
186	0x3fa1cfd340000000	0.03478870540857315
187	0x3fb4382220000000	0.07898152619600296
188	0x3fbaf253a0000000	0.10526011139154434
189	0xbfabcf08e0000000	-0.05431392416357994
190	0x3f93a56a80000000	0.01918569952249527
191	0xbfad6821c0000000	-0.057435087859630585
192	0x3f82329700000000	0.00888555496931076
193	0x3fb60713a0000000	0.08604548126459122
194	0x3fa5cb6640000000	0.04256743937730789
195	0x3f78437400000000	0.00592370331287384
196	0xbfb7c0f200000000	-0.09278786182403564
197	0x3f9713f180000000	0.02253701537847519
198	0x3fb4ae4f60000000	0.08078476041555405
199	0xbfbb11da20000000	-0.10574115067720413
200	0xbf98740c00000000	-0.023880183696746826
201	0xbfbafb8e00000000	-0.1054009199142456
202	0xbfb3826140000000	-0.0762081891298294
203	0xbfb65e2160000000	-0.08737381547689438
204	0x3faf389e40000000	0.06097883731126785
205	0xbf90eb4580000000	-0.016522489488124847
206	0x3f93e9ad80000000	0.019446097314357758
207	0x3f901de900000000	0.01573909819126129
208	0xbfa03a75c0000000	-0.03169601410627365
209	0xbfb71dec00000000	-0.09030032157897949
210	0x3fac540040000000	0.0553283765912056
211	0x3f9a3b0080000000	0.025615699589252472
212	0xbfb7ef1200000000	-0.09349167346954346
213	0x3fad9385c0000000	0.057766132056713104
214	0x3f9c278980000000	0.02749457210302353
215	0xbf9811a380000000	-0.02350478619337082
216	0xbfbba4da60000000	-0.10798420757055283
217	0x3faced43c0000000	0.056497685611248016
218	0xbf95c38c80000000	-0.02125377207994461
219	0xbfb8090480000000	-0.09388759732246399
220	0x3f76125000000000	0.0053885579109191895
221	0x3fa6a3f440000000	0.044219620525836945
222	0x3faad2ec40000000	0.05239046365022659
223	0xbf92f7e900000000	-0.01852382719516754
224	0x3fb647f7a0000000	0.0870356336236
225	0x3fa7d9aa40000000	0.046582527458667755
226	0x3fbbb02c20000000	0.10815692692995071
227	0xbf947e8800000000	-0.020013928413391113
228	0x3fb3c5bde0000000	0.07723604887723923
229	0x3fa948c7c0000000	0.04938339442014694
230	0xbfad5296a0000000	-0.05727072432637215
231	0xbfb6e00900000000	-0.08935600519180298
232	0x3f96b7b980000000	0.022185228765010834
233	0x3fb57696a0000000	0.0838407650589943
234	0x3f97888580000000	0.02298172563314438
235	0xbfbb951c20000000	-0.10774398595094681
236	0x3f9fc28280000000	0.031015433371067047
237	0xbf8de5ba00000000	-0.01459832489490509
238	0x3fb1e4dc20000000	0.06989837437868118
239	0xbfa732e280000000	-0.04531009495258331
240	0x3fb7231e20000000	0.09037960320711136
241	0x3fbbbde9e0000000	0.10836660116910934
242	0x3f711b0200000000	0.004176147282123566
243	0x3fb9873ca0000000	0.09971980005502701
244	0x3f8ee32000000000	0.015081644058227539
245	0xbf56b43800000000	-0.0013857409358024597
246	0xbfb1fd06a0000000	-0.07026711851358414
247	0x3fbb1753a0000000	0.10582468658685684
248	0x3fb9ca7e60000000	0.10074605792760849
249	0xbfb85653c0000000	-0.09506724774837494
250	0x3f53411800000000	0.0011751875281333923
251	0x3f979b8980000000	0.02305426448583603
252	0x3f78746e00000000	0.005970411002635956
253	0x3fba622a20000000	0.10306037217378616
254	0x3fb66d45a0000000	0.08760485798120499
255	0xbf97c80e00000000	-0.023224085569381714

blocks1.SCINet_Tree.workingblock.interact.level.phi.4.bias f8 [7]
0	0x3fb565e5a0000000	0.08358607441186905
1	0x3f9d06e780000000	0.028346650302410126
2	0x3fb68244a0000000	0.08792523294687271
3	0x3fb069e2e0000000	0.06411569565534592
4	0xbfaf47fec0000000	-0.061096154153347015
5	0x3f7098c800000000	0.004051953554153442
6	0xbf877a6e00000000	-0.011463984847068787

blocks1.SCINet_Tree.workingblock.interact.level.psi.1.weight f8 [28, 7, 5]
0	0x3f18060000000000	9.164214134216309e-05
1	0xbfaf235d80000000	-0.060816690325737
2	0xbf9386ff00000000	-0.01906965672969818
3	0x3f9b2fd700000000	0.026549682021141052
4	0x3f8a0a3a00000000	0.012714818120002747
5	0xbfbaa94220000000	-0.10414517670869827
6	0x3fa099d580000000	0.03242366015911102
7	0xbfb6c47a60000000	-0.08893551677465439
8	0xbfc2ea6b00000000	-0.14777886867523193
9	0x3fc0545ec0000000	0.12757477164268494
10	0x3fc548e780000000	0.166287362575531
11	0x3fa999b500000000	0.05000081658363342
12	0xbfae566040000000	-0.059252746403217316
13	0x3f9d3d4200000000	0.02855399250984192
14	0x3fc57054c0000000	0.16749057173728943
15	0xbfb65da220000000	-0.08736623078584671
16	0xbfb685e0e0000000	-0.08798032253980637
17	0x3fab836600000000	0.053736865520477295
18	0xbfb6c7e700000000	-0.08898776769638062
19	0x3fb71bb100000000	0.09026628732681274
20	0x3fa42a0c00000000	0.03938329219818115
21	0x3fb8457600000000	0.094809889793396
22	0x3fac739500000000	0.05556932091712952
23	0xbfb9a5f3a0000000	-0.1001884713768959
24	0xbfc2f65480000000	-0.14814239740371704
25	0x3fbccdc580000000	0.11251482367515564
26	0xbfab3e0e80000000	-0.05320782959461212
27	0xbf58e9e000000000	-0.001520603895187378
28	0xbfb7b746c0000000	-0.09264032542705536
29	0xbfc43c3a40000000	-0.15808799862861633
30	0xbfa351d880000000	-0.037733808159828186
31	0xbfb2e58320000000	-0.07381457835435867
32	0xbf9e716200000000	-0.029729396104812622
33	0x3fb8098e80000000	0.093895822763443
34	0xbfa46fd680000000	-0.03991575539112091
35	0x3fc2a5c4c0000000	0.14568385481834412
36	0x3f6920b800000000	0.0030673593282699585
37	0x3faac45080000000	0.05227901041507721
38	0xbf9a211600000000	-0.02551683783531189
39	0xbfb7884300000000	-0.09192293882369995
40	0x3fb4c40700000000	0.08111613988876343
41	0xbfc09fa480000000	-0.1298719048500061
42	0xbfbe967f20000000	-0.11948389559984207
43	0x3f818c6800000000	0.00856858491897583
44	0x3fbf608c80000000	0.12256696820259094
45	0xbf92093400000000	-0.017613232135772705
46	0x3f877cde00000000	0.011468634009361267
47	0xbfaf3a53c0000000	-0.06099187582731247
48	0x3fbe64c800000000	0.11872529983520508
49	0xbf9a34a500000000	-0.025591447949409485
50	0xbfbb7c31c0000000	-0.10736380517482758
51	0xbfc3ffb760000000	-0.15624134242534637
52	0xbfb1734920000000	-0.0681653693318367
53	0xbfb0a95660000000	-0.06508388370275497
54	0xbfa3c6f380000000	-0.038627251982688904
55	0x3faa88f900000000	0.051826268434524536
56	0xbfbeb5cee0000000	-0.11996167153120041
57	0xbfb91526e0000000	-0.09797900170087814
58	0xbf66332000000000	-0.0027099251747131348
59	0x3f7f8cb800000000	0.007702559232711792
60	0xbfc3ed2b60000000	-0.15567533671855927
61	0x3fb446d480000000	0.07920578122138977
62	0xbfc11d5200000000	-0.13370728492736816
63	0x3fa06ac800000000	0.03206467628479004
64	0x3fc5689ac0000000	0.16725477576255798
65	0xbfa1d67680000000	-0.03483934700489044
66	0x3fa0cfcd00000000	0.03283539414405823
67	0x3fb1d6c040000000	0.06968308985233307
68	0x3fae014b80000000	0.05860362946987152
69	0x3fb6d0cc00000000	0.08912348747253418
70	0xbfb7805e80000000	-0.09180250763893127
71	0xbfc029daa0000000	-0.12627728283405304
72	0x3fb6afb080000000	0.08861830830574036
73	0xbfc2630b00000000	-0.14364755153656006
74	0x3fae5bfd80000000	0.05929557979106903
75	0xbf98ab2900000000	-0.024090424180030823
76	0xbfbaa00dc0000000	-0.10400472581386566
77	0x3fbb9ce600000000	0.10786283016204834
78	0x3fad796d80000000	0.0575670450925827
79	0xbfa8d1c180000000	-0.04847531020641327
80	0x3fbbb3fa00000000	0.10821497440338135
81	0xbfc1d6b380000000	-0.13936465978622437
82	0x3fa7760280000000	0.04582221806049347
83	0xbfc2e0b520000000	-0.14748252928256989
84	0xbfbfcad200000000	-0.12418854236602783
85	0x3f987e9200000000	0.023920327425003052
86	0x3fb7623600000000	0.09134232997894287
87	0x3fc1fe9b40000000	0.14058247208595276
88	0xbfb77d51e0000000	-0.09175597876310349
89	0x3fb065e140000000	0.06405456364154816
90	0xbfa2311880000000	-0.03553082048892975
91	0x3fc4b79f80000000	0.16185373067855835
92	0xbfa7b60e40000000	-0.046310849487781525
93	0x3fa0f46c00000000	0.03311479091644287
94	0xbf805b3e00000000	-0.007986530661582947
95	0x3f8a239000000000	0.012763142585754395
96	0xbf680fe000000000	-0.0029372572898864746
97	0xbf6733c800000000	-0.0028323084115982056
98	0x3fa459b280000000	0.039746835827827454
99	0xbfc3d4c140000000	-0.1549302637577057
100	0x3fb4d46400000000	0.08136582374572754
101	0xbf62f3e800000000	-0.002313569188117981
102	0x3fa6d4cc00000000	0.04459226131439209
103	0xbfaeedd680000000	-0.06040830910205841
104	0xbfadbb0b40000000	-0.05806765705347061
105	0x3fb3dcf2c0000000	0.07759015262126923
106	0x3fa2a4ab00000000	0.036412566900253296
107	0xbfb23f3600000000	-0.07127702236175537
108	0x3fb1077cc0000000	0.06652049720287323
109	0xbfb04c04a0000000	-0.06365994364023209
110	0xbfb2bf9140000000	-0.07323558628559113
111	0x3fc1e65140000000	0.139841228723526
112	0x3f9fc89b00000000	0.031038686633110046
113	0x3fc48e0740000000	0.16058436036109924
114	0xbfc012eba0000000	-0.1255774050951004
115	0x3fabb94880000000	0.05414797365665436
116	0xbfaf4d4f00000000	-0.06113669276237488
117	0xbfb48ee140000000	-0.08030517399311066
118	0x3f8f12c800000000	0.01517254114151001
119	0x3fbcfdba00000000	0.11324656009674072
120	0xbfba2812e0000000	-0.10217397660017014
121	0x3f501df000000000	0.000983700156211853
122	0xbfb6564620000000	-0.08725393563508987
123	0xbfc38af500000000	-0.15267813205718994
124	0x3fbfada100000000	0.12374311685562134
125	0x3fb6042600000000	0.08600080013275146
126	0x3fa4977680000000	0.04021807014942169
127	0x3f75a5a800000000	0.005284935235977173
128	0xbfa94ff800000000	-0.0494382381439209
129	0xbfb8af5f00000000	-0.09642595052719116
130	0xbfa701b280000000	-0.044934824109077454
131	0xbfb1e27240000000	-0.06986154615879059
132	0xbfaecb7c40000000	-0.06014622002840042
133	0xbf9039f200000000	-0.015846043825149536
134	0xbf80b6d400000000	-0.008161216974258423
135	0x3fc05b1a40000000	0.1277802288532257
136	0x3fae0a7d00000000	0.05867376923561096
137	0xbfb255b380000000	-0.07162019610404968
138	0xbfbba11f40000000	-0.10792727768421173
139	0x3f97652b00000000	0.02284686267375946
140	0xbfc00247e0000000	-0.12506960332393646
141	0xbfa5279b00000000	-0.04131779074668884
142	0x3fc1295dc0000000	0.13407489657402039
143	0xbf9e821f00000000	-0.02979324758052826
144	0x3fa0898300000000	0.03229913115501404
145	0x3fc36c65c0000000	0.1517455279827118
146	0xbf7f66a400000000	-0.007666245102882385
147	0xbfbd8c7680000000	-0.11542454361915588
148	0x3fb112d740000000	0.0666937381029129
149	0x3fbed7b580000000	0.12047895789146423
150	0x3fc34ed700000000	0.15084350109100342
151	0xbfa4c7ce80000000	-0.04058690369129181
152	0x3fb60a4380000000	0.08609411120414734
153	0x3fab9e8a00000000	0.053943932056427
154	0xbfb4124e80000000	-0.07840433716773987
155	0x3fb224f300000000	0.07087630033493042
156	0xbfbd1a9060000000	-0.11368658393621445
157	0x3fb356e380000000	0.0755445659160614
158	0xbfb92cb480000000	-0.09833839535713196
159	0x3faa140580000000	0.05093400180339813
160	0xbfb166b720000000	-0.0679735615849495
161	0x3f7ecb9000000000	0.007518351078033447
162	0x3fb8b7e400000000	0.09655594825744629
163	0xbfc55b5aa0000000	-0.16685040295124054
164	0xbfb8eb9340000000	-0.09734459221363068
165	0x3fbc13d300000000	0.10967749357223511
166	0x3fb5327a80000000	0.08280149102210999
167	0x3fc52b6480000000	0.16538673639297485
168	0xbfbd995d00000000	-0.11562138795852661
169	0xbf9ab8f800000000	-0.026096224784851074
170	0xbfb740d400000000	-0.09083294868469238
171	0xbfa3587780000000	-0.03778432309627533
172	0xbfa819fa40000000	-0.04707319289445877
173	0xbfa0393880000000	-0.031686559319496155
174	0x3fc12e1140000000	0.13421836495399475
175	0x3fc0955640000000	0.12955740094184875
176	0xbfbaea79a0000000	-0.1051403060555458
177	0x3fc0c9f500000000	0.13116323947906494
178	0xbfa6d1f500000000	-0.044570595026016235
179	0x3f99e69b00000000	0.025293752551078796
180	0xbfa31c2b80000000	-0.037324294447898865
181	0x3fb4fdc880000000	0.08199742436408997
182	0x3f8a2f3e00000000	0.012785419821739197
183	0xbf86b38800000000	-0.01108461618423462
184	0xbf8f5e4200000000	-0.015316501259803772
185	0x3fc31accc0000000	0.14925536513328552
186	0x3fc54c9140000000	0.16639915108680725
187	0xbfb9533040000000	-0.09892560541629791
188	0xbfc0bde360000000	-0.1307949274778366
189	0x3fa9e35180000000	0.05056242644786835
190	0xbf74967000000000	-0.005026280879974365
191	0x3f938ce000000000	0.019092082977294922
192	0xbfc4ae0180000000	-0.16156023740768433
193	0xbf918f3900000000	-0.017147913575172424
194	0xbfb678c1e0000000	-0.08778011053800583
195	0x3fbaa03580000000	0.10400709509849548
196	0x3fb7648f00000000	0.09137815237045288
197	0xbf854ab800000000	-0.010396420955657959
198	0x3f9b094800000000	0.026402592658996582
199	0xbfc403bfc0000000	-0.15636441111564636
200	0xbfb8a6dba0000000	-0.0962960496544838
201	0x3fa2ea8e00000000	0.03694576025009155
202	0xbfbf23bbc0000000	-0.12163899838924408
203	0x3fb99b6380000000	0.10002729296684265
204	0xbf9aabff00000000	-0.026046738028526306
205	0x3fb0d667c0000000	0.06577156484127045
206	0xbf784f2c00000000	-0.005934879183769226
207	0xbf97c16700000000	-0.02319870889186859
208	0xbfc4ea60a0000000	-0.16340263187885284
209	0xbfb38a8a00000000	-0.076332688331604
210	0xbfad18d940000000	-0.05683020502328873
211	0x3fb0c0ee80000000	0.06544390320777893
212	0xbf98bdf900000000	-0.024162188172340393
213	0x3fb762fa00000000	0.09135401248931885
214	0x3fc3b66fc0000000	0.1540050208568573
215	0xbf7f76c000000000	-0.007681608200073242
216	0xbfb0b51880000000	-0.0652633011341095
217	0xbfb4092860000000	-0.0782647356390953
218	0x3fc0cadb00000000	0.13119065761566162
219	0x3fbb4f1c80000000	0.1066758930683136
220	0xbfc3d6ede0000000	-0.1549966186285019
221	0x3f98ab5a00000000	0.02409115433692932
222	0xbf8e70b600000000	-0.01486341655254364
223	0xbf9a107700000000	-0.025453433394432068
224	0xbfc03299a0000000	-0.12654419243335724
225	0x3fc2312d80000000	0.14212578535079956
226	0x3fc044e180000000	0.1271020770072937
227	0x3fc460b900000000	0.1592017412185669
228	0x3f88be1800000000	0.012081325054168701
229	0xbfb34b5a80000000	-0.07536855340003967
230	0xbfc115dce0000000	-0.13347969949245453
231	0x3f9fdb0900000000	0.03110899031162262
232	0xbfc487df00000000	-0.16039645671844482
233	0x3fc3cd4100000000	0.1547013521194458
234	0x3fb8c76080000000	0.09679225087165833
235	0x3fa44cb300000000	0.0396476686000824
236	0x3fb277ebc0000000	0.0721423476934433
237	0xbfaa226bc0000000	-0.051043860614299774
238	0xbf965ebd00000000	-0.021845772862434387
239	0x3fbac4e000000000	0.10456657409667969
240	0xbfb93443e0000000	-0.09845375269651413
241	0xbfc40987e0000000	-0.1565408557653427
242	0x3fc2ba5880000000	0.14631181955337524
243	0x3fa9d3f880000000	0.05044533312320709
244	0xbfb5be6700000000	-0.08493655920028687
245	0xbfa57ff480000000	-0.04199184477329254
246	0x3fc077fe80000000	0.12866193056106567
247	0xbfc57626a0000000	-0.1676681786775589
248	0x3fb3345200000000	0.07501709461212158
249	0xbfc21fd2a0000000	-0.14159615337848663
250	0xbfc3454d20000000	-0.1505524069070816
251	0x3f5093e000000000	0.0010118186473846436
252	0xbfc17562e0000000	-0.13639484345912933
253	0xbfacc95e00000000	-0.05622380971908569
254	0x3fb1954780000000	0.06868407130241394
255	0xbfb2dfc1e0000000	-0.07372676581144333

blocks1.SCINet_Tree.workingblock.interact.level.psi.1.bias f8 [28]
0	0xbf98a6f500000000	-0.024074390530586243
1	0x3fbcc3db00000000	0.11236351728439331
2	0x3fc2910400000000	0.1450505256652832
3	0xbfbccd4c60000000	-0.11250760406255722
4	0xbfb276b3c0000000	-0.07212375104427338
5	0x3fbaae1780000000	0.10421893000602722
6	0x3fb4b1bf80000000	0.08083721995353699
7	0xbf941a6300000000	-0.01963190734386444
8	0x3fc0972740000000	0.12961283326148987
9	0x3fa6932180000000	0.04409126937389374
10	0xbfb6dc9760000000	-0.08930345624685287
11	0x3f9ac8a300000000	0.026155993342399597
12	0x3fc13783c0000000	0.13450667262077332
13	0xbfc5822640000000	-0.16803434491157532
14	0xbfc384e0c0000000	-0.15249261260032654
15	0xbf696c2000000000	-0.003103315830230713
16	0xbfb1a0be40000000	-0.06885899603366852
17	0xbfbdfdb660000000	-0.11715259402990341
18	0x3fb8227280000000	0.09427562355995178
19	0xbfb6cb5e00000000	-0.08904063701629639
20	0x3fa20ddb00000000	0.035261958837509155
21	0x3faaa0f900000000	0.052009373903274536
22	0xbf42888000000000	-0.0005655884742736816
23	0x3fbec5d580000000	0.12020620703697205
24	0xbfad814740000000	-0.05762694031000137
25	0x3fb711bf80000000	0.09011456370353699
26	0x3fbfe3ab80000000	0.12456771731376648
27	0x3fc4991700000000	0.16092193126678467

blocks1.SCINet_Tree.workingblock.interact.level.psi.4.weight f8 [7, 28, 3]
0	0xbfa2178980000000	-0.03533582389354706
1	0xbfa19d6400000000	-0.03440392017364502
2	0xbfb6b90a60000000	-0.08876099437475204
3	0xbf948b1d00000000	-0.020061925053596497
4	0xbf923d5780000000	-0.017812125384807587
5	0xbf61707000000000	-0.002128809690475464
6	0xbfa464f5c0000000	-0.039832763373851776
7	0x3fb28b7da0000000	0.07244095951318741
8	0x3facbe06c0000000	0.05613728612661362
9	0xbfa1af9300000000	-0.03454264998435974
10	0x3fa2ee5b40000000	0.03697476536035538
11	0xbfa7361500000000	-0.04533448815345764
12	0x3facf15cc0000000	0.05652894824743271
13	0xbf908af380000000	-0.016155056655406952
14	0xbf8d955c00000000	-0.01444503664970398
15	0x3fb84bdd60000000	0.09490760415792465
16	0xbf98ea3d80000000	-0.02433105558156967
17	0x3fb6d6c760000000	0.0892147645354271
18	0x3f96543780000000	0.02180563658475876
19	0x3fb24a0860000000	0.071442149579525
20	0xbf66e70800000000	-0.0027957111597061157
21	0x3fb79fa6a0000000	0.0922798290848732
22	0xbfa80c6a80000000	-0.04696972668170929
23	0xbf9db55600000000	-0.029012054204940796
24	0x3fb833aa20000000	0.09453833848237991
25	0xbfb811cfe0000000	-0.09402178972959518
26	0xbfa2b65000000000	-0.036547183990478516
27	0xbfaf6c4520000000	-0.06137290969491005
28	0xbfb54e8e80000000	-0.0832299292087555
29	0x3fa2074940000000	0.03521183878183365
30	0xbfb0125300000000	-0.06277960538864136
31	0x3fb7318720000000	0.09059948474168777
32	0xbf83ba1d00000000	-0.009632326662540436
33	0xbfbbdcac40000000	-0.10883595049381256
34	0xbfb1cd6500000000	-0.06954032182693481
35	0xbfb60fb280000000	-0.08617702126502991
36	0xbfb8871be0000000	-0.09581159800291061
37	0x3fba396d20000000	0.10243875533342361
38	0xbfbb4c7740000000	-0.10663552582263947
39	0xbfb9235b80000000	-0.09819576144218445
40	0xbfbac660e0000000	-0.10458951443433762
41	0xbf92bc8a80000000	-0.018297351896762848
42	0xbfb0d6d6c0000000	-0.06577818095684052
43	0x3fa835a140000000	0.047284163534641266
44	0x3f8688ed00000000	0.011003352701663971
45	0xbf9dda6f00000000	-0.029153570532798767
46	0x3f94c38f80000000	0.020277254283428192
47	0xbf8cd5bb00000000	-0.014079533517360687
48	0x3fb9a0c7e0000000	0.10010956972837448
49	0x3f925a0780000000	0.017921559512615204
50	0xbfac0cf300000000	-0.05478629469871521
51	0xbfa86eef40000000	-0.047721363604068756
52	0xbfbad139a0000000	-0.10475502163171768
53	0xbfacf0a1e0000000	-0.05652337893843651
54	0x3f9a83cf80000000	0.0258934423327446
55	0xbfac95e8e0000000	-0.055831220000982285
56	0xbfa4845600000000	-0.04007214307785034
57	0x3fb4449760000000	0.07917162030935287
58	0xbfbad33bc0000000	-0.10478566586971283
59	0x3fad2fb240000000	0.05700451880693436
60	0xbf870b2c00000000	-0.011251777410507202
61	0x3f912ee380000000	0.01678042858839035
62	0xbfae3e7e60000000	-0.059070538729429245
63	0x3fb8fdc0a0000000	0.09762195497751236
64	0x3f84d5dc00000000	0.010173529386520386
65	0xbfab5d4f20000000	-0.053446266800165176
66	0xbfaa7f1d20000000	-0.05175105109810829
67	0x3fb65ee9a0000000	0.08738575130701065
68	0x3fab290840000000	0.05304742604494095
69	0x3fa0084940000000	0.0313132181763649
70	0xbf68081c00000000	-0.0029335543513298035
71	0x3fb24479a0000000	0.0713573470711708
72	0xbf93a07180000000	-0.0191667303442955
73	0x3fba617520000000	0.10304958373308182
74	0x3fa355ad40000000	0.03776303678750992
75	0x3fb05ae9a0000000	0.06388721615076065
76	0x3fb1893a20000000	0.06850016862154007
77	0xbfacac6c00000000	-0.05600297451019287
78	0x3fa08929c0000000	0.032296471297740936
79	0x3fb01035e0000000	0.06274735182523727
80	0xbfadfced00000000	-0.058570295572280884
81	0x3f93074880000000	0.01858247071504593
82	0x3f81abf000000000	0.0086287260055542
83	0xbfbb9d32e0000000	-0.10786741226911545
84	0xbf8c25c800000000	-0.013743937015533447
85	0x3fb09ca420000000	0.06489015370607376
86	0xbfb315d9a0000000	-0.07455215603113174
87	0xbfaec4c720000000	-0.06009504571557045
88	0x3fb5dac120000000	0.08536917716264725
89	0x3fb2fb6f20000000	0.07414907962083817
90	0x3fb85621e0000000	0.09506427496671677
91	0x3fa8421940000000	0.04737929254770279
92	0x3fb9471aa0000000	0.09874121099710464
93	0xbfae87da40000000	-0.059630222618579865
94	0x3fb54bb7e0000000	0.08318661898374557
95	0x3fb3bbec60000000	0.07708623260259628
96	0xbf9ab2a980000000	-0.026072166860103607
97	0xbfb43bace0000000	-0.07903557270765305
98	0x3fa18a3340000000	0.03425750881433487
99	0xbf8125a100000000	-0.008372552692890167
100	0xbfafd0af40000000	-0.062139011919498444
101	0xbfaee63680000000	-0.06035013496875763
102	0x3f91bf7480000000	0.017331905663013458
103	0xbf93e59900000000	-0.019430533051490784
104	0x3f8c0e9300000000	0.013699673116207123
105	0x3fb02975a0000000	0.0631326213479042
106	0xbfbb077980000000	-0.10558280348777771
107	0xbf9eac4480000000	-0.02995402365922928
108	0xbf8a28d200000000	-0.012773171067237854
109	0x3faba8cec0000000	0.054022274911403656
110	0x3fb9d99aa0000000	0.1009766235947609
111	0xbfbb6aa3e0000000	-0.10709594935178757
112	0xbfa1b59600000000	-0.034588515758514404
113	0xbfb3d88180000000	-0.07752236723899841
114	0xbfb6d46e80000000	-0.08917894959449768
115	0x3fb86bb3e0000000	0.09539341181516647
116	0x3fbabd7ca0000000	0.10445383936166763
117	0xbf98e2d000000000	-0.02430272102355957
118	0x3fba608860000000	0.10303547233343124
119	0x3fb39ec8a0000000	0.07664159685373306
120	0xbfb41108c0000000	-0.07838492095470428
121	0xbfb4647780000000	-0.07965800166130066
122	0x3fb2a852e0000000	0.07288091629743576
123	0x3f81a21a00000000	0.008609965443611145
124	0xbfadbf4aa0000000	-0.05810006335377693
125	0x3fb3a25520000000	0.0766957476735115
126	0xbfba016080000000	-0.10158351063728333
127	0x3f644c3c00000000	0.0024777576327323914
128	0x3fa5611f40000000	0.041756607592105865
129	0xbf91480b00000000	-0.016876384615898132
130	0xbf82af9c00000000	-0.009124010801315308
131	0xbf9d3bcf80000000	-0.0285484716296196
132	0xbfa4dd3e40000000	-0.040750451385974884
133	0x3fb44bed60000000	0.07928355783224106
134	0xbfb7251180000000	-0.09040936827659607
135	0x3fb97057e0000000	0.09937047213315964
136	0x3fb86e9020000000	0.09543705731630325
137	0x3faf21f340000000	0.06080589443445206
138	0xbfb9dea880000000	-0.10105374455451965
139	0xbfb8616e40000000	-0.09523667395114899
140	0xbfa2b57840000000	-0.03654075413942337
141	0x3fba3109a0000000	0.10231075435876846
142	0xbf8521f100000000	-0.010318644344806671
143	0xbf7c3fd000000000	-0.006896793842315674
144	0x3fb3063ce0000000	0.0743139311671257
145	0xbfb06abc00000000	-0.06412863731384277
146	0x3f57fee000000000	0.0014645755290985107
147	0xbf9a944d80000000	-0.025956355035305023
148	0x3f78392000000000	0.005913853645324707
149	0x3fb0a56ee0000000	0.06502430886030197
150	0xbfb154ca80000000	-0.06770005822181702
151	0x3fb39984a0000000	0.07656124979257584
152	0xbfb090c4e0000000	-0.06470900028944016
153	0xbfb2082040000000	-0.070436492562294
154	0xbfb13d99e0000000	-0.06734620779752731
155	0x3faa3cd6c0000000	0.05124541372060776
156	0x3fb9cde9a0000000	0.10079822689294815
157	0x3fb14a53e0000000	0.06754039973020554
158	0xbf6c25f800000000	-0.003436073660850525
159	0x3fa43f0a40000000	0.039543457329273224
160	0x3fa29476c0000000	0.03628893941640854
161	0xbfbbe44b80000000	-0.10895225405693054
162	0xbfba1ba720000000	-0.10198444873094559
163	0x3f6a06cc00000000	0.003177069127559662
164	0xbfb27d4ea0000000	-0.07222453504800797
165	0xbfa0ef5140000000	-0.03307584673166275
166	0xbf8c8cd700000000	-0.013940505683422089
167	0x3fb3729f20000000	0.07596773654222488
168	0xbfb9e5c640000000	-0.10116232931613922
169	0x3f8e71d300000000	0.014865539968013763
170	0xbf9016f900000000	-0.015712633728981018
171	0x3f9905fa80000000	0.024436868727207184
172	0x3fb0eb7ea0000000	0.06609336286783218
173	0x3fa8fa5540000000	0.04878488928079605
174	0xbfa8f59ea0000000	-0.048748929053545
175	0xbfa9c80e80000000	-0.05035443603992462
176	0xbfaf59f100000000	-0.061233073472976685
177	0xbfb5e22600000000	-0.08548200130462646
178	0x3fb58e3760000000	0.08420129865407944
179	0x3fb655e820000000	0.08724833279848099
180	0xbfb59aa6a0000000	-0.0843910351395607
181	0x3fb50d5420000000	0.08223462849855423
182	0x3fb904e320000000	0.09773082286119461
183	0xbfb218b740000000	-0.07068963348865509
184	0xbfb88588a0000000	-0.09578756242990494
185	0x3fb4112260000000	0.07838644832372665
186	0xbfa19308c0000000	-0.03432490676641464
187	0xbfb54322c0000000	-0.08305566012859344
188	0x3fae231040000000	0.05886126309633255
189	0x3f74157c00000000	0.0049033015966415405
190	0xbfb71e7b80000000	-0.09030887484550476
191	0x3fb43542a0000000	0.07893768697977066
192	0xbfaf283800000000	-0.06085371971130371
193	0xbfa748f140000000	-0.04547838121652603
194	0x3f89d38d00000000	0.012610532343387604
195	0xbf9f854f00000000	-0.03078196942806244
196	0xbfb389b340000000	-0.07631988823413849
197	0x3fa0c97c40000000	0.03278721123933792
198	0xbfb9ee3460000000	-0.10129096359014511
199	0xbfa48aa100000000	-0.04012015461921692
200	0x3fb20b2fa0000000	0.07048318535089493
201	0xbfa0ee2440000000	-0.033066876232624054
202	0x3fb296e0a0000000	0.07261470705270767
203	0x3fa4991f40000000	0.040230728685855865
204	0xbf93794780000000	-0.019017331302165985
205	0xbfa0303f80000000	-0.03161810338497162
206	0xbfbafe0660000000	-0.10543861240148544
207	0x3fa37ad9c0000000	0.03804665058851242
208	0x3f6caff400000000	0.0035018697381019592
209	0x3fb3e2f260000000	0.07768168300390244
210	0x3fa0637a40000000	0.032008953392505646
211	0xbf9f6bad00000000	-0.03068418800830841
212	0xbf2afa8000000000	-0.00020582973957061768
213	0xbfbaf8fa40000000	-0.10536159574985504
214	0xbfa3a5ea80000000	-0.038375213742256165
215	0xbfb0018d80000000	-0.06252369284629822
216	0x3fb1ac8360000000	0.06903859227895737
217	0x3fb6aaad20000000	0.08854181319475174
218	0xbf9fcd2780000000	-0.031056039035320282
219	0xbfb85c7e60000000	-0.09516134113073349
220	0x3f9ec06780000000	0.030030839145183563
221	0x3f9d350880000000	0.028522618114948273
222	0xbfb89201a0000000	-0.09597788006067276
223	0x3f90f79780000000	0.016569487750530243
224	0x3f9c010680000000	0.027347661554813385
225	0x3faa3c2c40000000	0.051240332424640656
226	0x3f94f1f880000000	0.020454294979572296
227	0xbfb8dd4420000000	-0.09712625294923782
228	0xbf78c0de00000000	-0.0060433074831962585
229	0xbfb5652ee0000000	-0.08357518166303635
230	0x3fac349a40000000	0.0550888255238533
231	0xbfb3eda620000000	-0.07784498482942581
232	0xbfb0f37440000000	-0.06621481478214264
233	0x3fae4d4f40000000	0.059183575212955475
234	0x3fba3fb660000000	0.10253467410802841
235	0xbf8916a700000000	-0.012250237166881561
236	0xbf96f63500000000	-0.022423580288887024
237	0x3faf8a1e40000000	0.06160063296556473
238	0x3fb1f33220000000	0.07011712342500687
239	0xbfb2a7ba80000000	-0.07287183403968811
240	0x3f98037f80000000	0.02345084398984909
241	0xbf71b9a200000000	-0.004327423870563507
242	0xbf8d77bd00000000	-0.014388538897037506
243	0x3fa5dc2fc0000000	0.04269551485776901
244	0x3f67afc000000000	0.0028914213180541992
245	0xbf97b8ac80000000	-0.02316541224718094
246	0x3fa8708f40000000	0.04773376137018204
247	0x3fb2154b20000000	0.07063741236925125
248	0x3fa4462840000000	0.039597757160663605
249	0x3fad384840000000	0.05707002431154251
250	0x3fb467a060000000	0.07970621436834335
251	0x3f8512ed00000000	0.010290004312992096
252	0xbfbaf83e00000000	-0.10535037517547607
253	0x3fa8c0da40000000	0.048346348106861115
254	0xbfaf048660000000	-0.06058139726519585
255	0x3fb9d4efe0000000	0.1009054109454155

blocks1.SCINet_Tree.workingblock.interact.level.psi.4.bias f8 [7]
0	0xbfbbdc6360000000	-0.10883160680532455
1	0x3f4b32d000000000	0.0008300319314002991
2	0x3fb11b2060000000	0.0668201670050621
3	0xbf90ba6900000000	-0.016336098313331604
4	0xbfb192e5a0000000	-0.06864771991968155
5	0x3f70567600000000	0.003988705575466156
6	0x3faa674d40000000	0.0515693798661232
